autoencoder_model.pth (torch, 95854 bytes, 15 tensors)

encoder.0.weight f4 [8, 1, 3, 3]
0.4007411 0.1807798 0.027032709 0.28902054 -0.47653198 -0.36451972 -0.1727071 -0.37214634
-0.1632476 -0.13421172 0.25952566 0.38931975 0.15968734 -0.55315965 -0.37528014 -0.3215884
0.13945384 0.38124648 -0.4177195 -0.4474795 -0.33278814 0.18062168 0.08588236 0.13872881
0.25787267 0.24732867 0.16544089 -0.028272219 -0.39747384 -0.0005151858 0.16902614 -0.19101337
0.27328137 0.06132864 -0.3664287 0.24016197 -0.07247832 -0.036521837 0.041361723 0.29732877
0.14453301 0.10406784 -0.21566297 0.067191385 0.02282143 0.3813509 -0.22921772 -0.08990115
-0.29230055 -0.348165 0.38567573 0.08171382 -0.07978314 -0.02016449 0.16496876 -0.16595499
0.046337962 -0.25422388 0.2153498 -0.07516014 0.2042081 0.054656062 -0.14165369 0.24761319
-0.47533154 0.27080217 -0.40883362 -0.026918486 -0.015377523 0.13783929 0.29505908 0.047533546
00000000: f02d cd3e 571e 393e b373 dd3c 80fa 933e
00000010: 00fc f3be 54a2 babe 21da 30be f789 bebe
00000020: 612a 27be cc6e 09be 8ce0 843e eb54 c73e
00000030: 1485 233e df9b 0dbf b824 c0be 3ca7 a4be
00000040: fdcc 0e3e bd32 c33e 55df d5be 081c e5be
00000050: 3563 aabe e4f4 383e 17e3 af3d ed0e 0e3e
00000060: e307 843e ba43 7d3e 5669 293e 249b e7bc
00000070: b181 cbbe 890d 07ba 3015 2d3e 0299 43be
00000080: 89eb 8b3e bd33 7b3d 8b9c bbbe 05ed 753e
00000090: 836f 94bd ec97 15bd e96a 293d 7a3b 983e
000000a0: 7600 143e 8521 d53d c1d6 5cbe a39b 893d
000000b0: 02f4 ba3c 6d40 c33e 0db8 6abe 181e b8bd
000000c0: 6ba8 95be af42 b2be 4a77 c53e 9359 a73d
000000d0: 5865 a3bd 0030 a5bc 92ed 283e 1bf0 29be
000000e0: e0cc 3d3d a229 82be a884 5c3e 8fed 99bd
000000f0: ee1b 513e 09df 5f3d aa0d 11be 508e 7d3e
00000100: a85e f3be 95a6 8a3e a452 d1be 2884 dcbc
00000110: 02f2 7bbc be25 0d3e fc11 973e 89b2 423d

encoder.0.bias f4 [8]
-0.063147746 0.034624364 0.06741007 0.1884462 -0.098983064 0.19732755 0.22881678 -0.19259903
00000000: 9b53 81bd 47d2 0d3d 4a0e 8a3d 0af8 403e
00000010: a2b7 cabd 3c10 4a3e f24e 6a3e ae38 45be

encoder.3.weight f4 [16, 8, 3, 3]
-0.5546179 -0.24427241 -0.487071 -0.13509327 -0.46460825 -0.27513817 -0.6049804 -0.69675815
-0.43122268 -0.014734552 -0.19004911 -0.30207476 -0.04039019 -0.120054394 -0.33813548 0.073760636
-0.31091827 -0.39079297 -0.29084542 -0.4839433 -0.5635715 -0.24408717 -0.2689618 -0.2622737
-0.49941614 -0.22833511 -0.16850951 -0.2436705 -0.18637642 -0.19367589 0.17213804 0.08226576
-0.05066254 -0.21194205 -0.0111990385 -0.057526916 0.016237166 0.16318978 0.119096614 0.1761505
0.06277122 0.07932266 0.101871856 -0.05501768 -0.0010514875 -0.4215125 -0.24856967 -0.3119172
-0.24872814 -0.27541083 -0.34901562 -0.16318317 -0.3076611 -0.24136238 0.018944269 0.12819865
0.10650144 0.10345583 0.17657755 0.15780918 0.07259659 -0.040224858 0.048760626 -0.4589518
0.004279342 -0.053124823 0.006615726 0.24299403 0.10600858 0.09915837 0.017385695 -0.034879696
-0.39376017 -0.5328654 -0.4245161 -0.31061783 -0.30517644 -0.509594 -0.017139861 -0.24651381
0.16588914 -0.14152217 -0.53911173 -0.015874537 0.39266947 0.37922725 -0.08243247 0.61867434
0.8928213 0.5028925 -0.30377352 -0.28404135 -0.3022545 -0.00035726104 -0.14228503 0.023175934
0.23423241 0.25835574 0.18684515 -0.024994064 -0.036403347 -0.015892504 0.15311898 0.09647302
0.03271023 0.18777621 0.14570837 0.008372861 0.0010581237 -0.080820315 -0.046748593 -0.027911473
0.09682786 0.0629822 0.039404597 -0.055013355 0.16080348 0.07712064 -0.016488764 0.099223085
0.30199412 0.1628647 0.10910803 0.3405841 0.3849904 0.115538016 -0.0585332 0.053271607
-0.008497152 -0.018302353 0.11137925 0.00031911323 0.09438087 -0.03225671 -0.086802 -0.4445519
-0.19557683 -0.10425857 -0.008846661 0.050614394 0.12356196 0.2978732 0.4833045 0.22439441
-0.16036658 -0.038028017 -0.066194035 0.13470465 0.29575342 -0.0012354752 0.3711689 0.16600543
0.21528612 0.3450929 0.07768298 0.5377773 0.0988485 0.7844802 0.39174736 0.3288498
0.7982822 0.3514956 -0.028129779 -0.13305418 -0.014739186 0.042182487 0.017105747 0.02699204
0.47098407 0.55517524 0.48891285 -0.057424523 0.08352408 0.09927464 -0.002534694 0.10886354
0.00050838245 0.2773179 0.33962694 0.15304413 0.10460586 -0.00043774463 -0.027008824 0.10238895
0.05407528 -0.018545168 0.07041691 -0.07456066 -0.03406419 -0.08729393 0.396472 0.288868
0.120938286 0.57957613 0.38408273 0.14820205 0.51146245 0.13888998 -0.018804366 -0.017825581
0.15521607 0.015038149 0.01050173 -0.06567687 0.16404152 -0.059640646 -0.087879255 0.049248185
0.10995989 0.34290192 0.40527585 0.48692095 0.68409914 0.5204122 0.75183105 0.3919647
-0.5623822 -0.47756815 -0.3541875 -0.33956322 -0.90724015 -0.48645708 -0.43351874 -0.76056015
-0.6162374 0.11867797 -0.105368964 0.032736346 0.2652479 -0.32697284 0.26754358 0.041856524
-0.22567251 0.17446026 -0.21099435 -0.14829083 -0.14351225 -0.06456345 -0.17660828 0.0017118745
-0.08392857 -0.17553383 0.024501886 0.15580373 0.0273913 0.08900967 -0.07825892 -0.09763512
0.20089269 -0.0061683883 -0.1102072 0.04757535 0.01506069 0.04897313 -0.06583092 0.053311
00000000: 70fb 0dbf 8c22 7abe 5f61 f9be e455 0abe
00000010: 22e1 edbe e9de 8cbe ffdf 1abf be5e 32bf
00000020: 38c9 dcbe 3169 71bc 3c9c 42be 8ba9 9abe
00000030: 2f70 25bd 14df f5bd 1820 adbe d10f 973d
00000040: ae30 9fbe 0416 c8be b1e9 94be 6bc7 f7be
00000050: 3946 10bf fdf1 79be 5cb5 89be bd48 86be
00000060: 79b3 ffbe aed0 69be c28d 2cbe c284 79be
00000070: 76d9 3ebe f952 46be f444 303e f37a a83d
00000080: 8683 4fbd 5607 59be 2c7c 37bc 58a1 6bbd
00000090: ce03 853c 391b 273e ede8 f33d cc60 343e
000000a0: 338e 803d eb73 a23d 31a2 d03d 385a 61bd
000000b0: 11d2 89ba 7dd0 d7be 0c89 7ebe 9cb3 9fbe
000000c0: 97b2 7ebe a602 8dbe 2db2 b2be 7d19 27be
000000d0: c185 9dbe b327 77be 0331 9b3c 8246 033e
000000e0: 6d1d da3d a6e0 d33d bfd0 343e bb98 213e
000000f0: 85ad 943d d2c2 24bd 39b9 473d bbfb eabe
00000100: b939 8c3b 6a99 59bd bbc8 d83b 6dd3 783e
00000110: 071b d93d 8b13 cb3d 726c 8e3c 03de 0ebd
00000120: ef9a c9be de69 08bf 2d5a d9be 4d09 9fbe
00000130: 1640 9cbe c174 02bf e568 8cbc 1e6e 7cbe
00000140: d8de 293e 30eb 10be 3a03 0abf 510b 82bc
00000150: f90b c93e 132a c23e 5bd2 a8bd 7161 1e3f
00000160: f08f 643f 90bd 003f 3488 9bbe de6d 91be
00000170: 1ac1 9abe c44e bbb9 2bb3 11be 75db bd3c
00000180: 9fda 6f3e 3447 843e 5654 3f3e 5ac0 ccbc
00000190: ad1b 15bd ff30 82bc 39cb 1c3e a693 c53d
000001a0: 2afb 053d 6848 403e 9334 153e 532e 093c
000001b0: bdb0 8a3a 1f85 a5bd 747b 3fbd 9aa6 e4bc
000001c0: af4d c63d d0fc 803d b766 213d af55 61bd
000001d0: aba9 243e 6df1 9d3d 7213 87bc 7935 cb3d
000001e0: f99e 9a3e 01c6 263e 0874 df3d 0a61 ae3e
000001f0: 761d c53e 329f ec3d 82c0 6fbd 5433 5a3d
00000200: a337 0bbc d1ee 95bc ce1a e43d a74e a739
00000210: c24a c13d 9d1f 04bd 3fc5 b1bd 4e9c e3be
00000220: 4b45 48be 8485 d5bd 96f1 10bc 0a51 4f3d
00000230: 0e0e fd3d d682 983e b073 f73e a6c7 653e
00000240: 2337 24be 44c3 1bbd bd90 87bd 04f0 093e
00000250: fe6c 973e abef a1ba da09 be3e 54fd 293e
00000260: f773 5c3e 04b0 b03e 4118 9f3d c6ab 093f
00000270: 1571 ca3d b2d3 483f 1c93 c83e 005f a83e
00000280: 395c 4c3f 3bf7 b33e 6c70 e6bc 5b3f 08be
00000290: a07c 71bc 8bc7 2c3d 5a21 8c3c 691e dd3c
000002a0: d324 f13e f71f 0e3f c952 fa3e fa35 6bbd
000002b0: ac0e ab3d 8150 cb3d 1c1d 26bb d9f3 de3d
000002c0: f844 053a 9dfc 8d3e 95e3 ad3e 9ab7 1c3e
000002d0: 993b d63d 1781 e5b9 9c41 ddbc 4cb1 d13d
000002e0: 0a7e 5d3d 09ec 97bc be36 903d 42b3 98bd
000002f0: e486 0bbd 29c7 b2bd 61fe ca3e 82e6 933e
00000300: 7eae f73d 1a5f 143f 7ea6 c43e 47c2 173e
00000310: 34ef 023f 2d39 0e3e 9d0b 9abc f406 92bc
00000320: f6f0 1e3e 9262 763c 730f 2c3c 9881 86bd
00000330: 80fa 273e c049 74bd 0afa b3bd 77b8 493d
00000340: a732 e13d d790 af3e 5180 cf3e b44d f93e
00000350: 1f21 2f3f bc39 053f 0078 403f 99af c83e
00000360: 48f8 0fbf d083 f4be 1058 b5be 3bdb adbe
00000370: e440 68bf e710 f9be 2bf6 ddbe 12b4 42bf
00000380: bcc1 1dbf 6f0d f33d afcb d7bd 8c16 063d
00000390: 93ce 873e fc68 a7be 79fb 883e bf71 2b3d
000003a0: b216 67be b6a5 323e e70e 58be 8dd9 17be
000003b0: e0f4 12be d839 84bd cdd8 34be fa60 e03a
000003c0: bee2 abbd 24bf 33be 2eb8 c83c 038b 1f3e
000003d0: b863 e03c b44a b63d 3646 a0bd ecf4 c7bd
000003e0: d0b6 4d3e 3120 cabb 50b4 e1bd 5fde 423d
000003f0: 1dc1 763c 0c98 483d 5dd2 86bd a35c 5a3d

encoder.3.bias f4 [16]
0.1471004 -0.074277334 -0.121328734 0.06084478 -0.030295579 -0.16995758 0.050622012 0.04348463
-0.10607191 -0.014410635 -0.025945468 0.035674326 0.15124199 0.06709982 -0.0077466317 0.0655422
00000000: 7da1 163e b71e 98bd 337b f8bd 6038 793d
00000010: 6f2e f8bc 5c09 2ebe 0759 4f3d f01c 323d
00000020: 3b3c d9bd 961a 6cbc 978b d4bc 3e1f 123d
00000030: 2edf 1a3e a16b 893d 75d7 fdbb fd3a 863d

encoder.6.weight f4 [32, 16, 3, 3]
-2.2554755e-38 -2.5383485e-38 -4.2476933e-38 5.375403e-38 -2.691052e-38 -4.4642852e-38 6.073358e-39 -3.9182048e-38
-5.645797e-38 -6.692381e-33 -2.2225537e-26 2.7218832e-16 -1.2811008e-38 -2.699491e-23 -1.6560266e-38 -2.2319498e-18
2.9111973e-35 -8.129499e-17 -1.6311969e-38 -2.1513149e-38 1.1648012e-38 -6.5968317e-38 7.38048e-40 5.7811106e-38
2.0441307e-38 -4.258072e-22 -1.2221874e-25 -1.2849805e-11 1.0057988e-11 -1.9857397e-11 2.3573065e-11 -2.0564247e-12
1.2199439e-11 1.7037331e-10 5.1938193e-12 -5.784443e-13 -8.428261e-11 -4.3820506e-10 -9.33313e-11 -8.501001e-09
-1.9356459e-09 -1.6740044e-09 -1.3142389e-07 8.645746e-09 2.7048768e-09 2.5979883e-38 6.868513e-38 9.777215e-39
2.1914195e-38 3.57683e-40 2.16771e-38 -2.676171e-21 -4.682569e-22 -2.4637797e-20 2.1821465e-38 3.251689e-38
4.7032654e-35 9.66858e-40 5.916117e-39 -1.8141891e-38 1.5559016e-38 -3.2592212e-38 -2.2123529e-38 -5.622508e-17
-9.193926e-13 5.1038156e-13 -2.7970298e-16 -1.6843612e-13 1.7539538e-14 2.0581627e-12 -1.4761121e-12 -6.3280415e-20
-4.087257e-39 5.102097e-38 3.8870374e-38 4.2859044e-38 -2.1185105e-38 1.4483635e-38 4.916211e-38 -2.6468947e-38
1.764095e-38 -5.0531904e-38 -4.2056675e-38 -3.44745e-38 -2.8557734e-38 -5.6206586e-38 7.335276e-39 5.989947e-38
2.553103e-38 2.2902121e-38 1.3531142e-15 7.2458434e-17 -1.2215525e-19 -1.0195932e-38 1.6126695e-38 6.1455205e-38
-2.0028654e-38 -2.3746233e-38 -2.2351202e-38 8.8671274e-17 -2.7287907e-18 -1.635234e-12 4.278265e-11 -6.9060693e-15
-4.568225e-14 9.109995e-09 -1.06504545e-11 -1.067942e-11 3.0525594e-23 -2.4041795e-14 1.0386668e-10 -3.830034e-17
-3.6563612e-12 -2.3066377e-11 -2.2157941e-10 1.04702594e-10 -5.236899e-18 -3.7433093e-38 -2.26336e-38 -1.1983406e-38
5.2401825e-38 -2.734419e-38 -2.950094e-38 -8.852463e-39 -3.3525875e-38 -2.9970192e-38 -1.1074032e-38 -5.676961e-38
-4.373521e-39 -2.7862152e-38 -1.0330525e-38 -3.7492273e-38 -2.1498341e-38 2.87416e-38 -2.2641064e-38 -2.8729385e-18
-1.406292e-20 2.1763624e-16 2.3855624e-15 -5.0172627e-17 -7.4106923e-16 -1.6193488e-13 7.067109e-18 -6.879874e-28
-0.13274899 -0.044760857 -0.10299565 -0.1130425 -0.19234812 -0.19865629 -0.077124014 -0.24454083
-0.20627563 0.047007676 0.038354997 0.13220543 -0.14879213 -0.117379546 0.042208213 0.060702283
0.07691575 0.15177855 0.009945912 0.12613258 0.15275824 -0.07324805 -0.14525267 0.06754814
-0.03243159 -0.082156 0.09776262 0.018752553 0.07285874 0.043941535 0.010833388 0.00078587135
0.047746237 0.019630121 -0.008954234 -0.029714955 0.011322652 0.064714655 0.0035387252 -0.036977306
-0.13647392 0.00061664626 0.07296538 -0.022115022 0.057719156 0.18480968 0.24351843 0.14101985
-0.0035357005 -0.019725638 0.07946908 -0.102068484 0.07270104 0.17618942 0.155652 0.16570866
0.10917542 -0.14132376 -0.106113546 0.052614987 0.07820867 0.015922962 0.1459469 -0.061409254
-0.06378278 -0.007821775 -0.10809589 -0.12738867 0.15275183 -0.036442306 -0.04497438 0.0010877242
0.20256995 0.12944303 0.10605095 0.094906315 -0.08735448 0.08030154 -0.062178034 0.0011356894
0.14412081 0.0009767668 0.0011535544 0.0011620284 0.00095600367 0.0010778201 0.001098079 0.0009790352
0.0011225694 0.0011488589 0.053913753 0.13270058 0.069500834 0.034135792 -0.08647507 0.14017902
0.048764814 0.11312746 0.14384027 0.005263525 -0.10064581 -0.028060418 -0.032215394 0.0015263789
-0.06352684 -0.15004206 -0.06697425 -0.020471426 -0.006569136 0.028719224 0.044554446 0.004260941
00000000: 7b99 f580 6a33 0a81 3444 6781 1755 9201
00000010: ca83 1281 0e0f 7381 0d22 4200 ce53 5581
00000020: 76b1 9981 cdfe 0a8a 6e1c dc94 e8e7 9c25
00000030: e17f 8b80 148a 029a 4953 b480 57b0 24a2
00000040: 2ac9 1a06 1874 bba4 229f b180 e841 ea80
00000050: ebd5 7e00 3595 b381 6109 0800 7660 9d01
00000060: 0c96 de00 3db1 009c aa4c 1796 610e 62ad
00000070: 27f1 302d e2aa aead d359 cf2d 41b5 10ac
00000080: 649d 562d d353 3b2f c4bd b62c 4ed1 22ab
00000090: e456 b9ae e1e7 f0af da3c cdae cc0b 12b2
000000a0: 3e04 05b1 cb12 e6b0 861d 0db4 6588 1432
000000b0: b2e0 3931 ac72 0d01 8dfa ba01 e676 6a00
000000c0: dc9f ee00 13e5 0300 ef0a ec00 ad34 4a9d
000000d0: 9f85 0d9c 8ab2 e89e 5e9d ed00 ee09 3101
000000e0: 8811 7a06 3587 0a00 ba6b 4000 368c c580
000000f0: 356c a900 ea72 3181 66e7 f080 6ea5 81a4
00000100: 9c64 81ab dea8 0f2b e03c a1a5 68a4 3daa
00000110: 6cfb 9d28 90d4 102c 8bbe cfab aa6a 959f
00000120: 9c81 2c80 6de4 8a01 65a1 5301 ca58 6901
00000130: 74af e680 7bb6 9d00 fed4 8501 541c 1081
00000140: cb17 c000 998f 8981 73fa 6481 71b2 3b81
00000150: ac7b 1b81 4602 9981 c4df 4f00 d70f a301
00000160: 1001 0b01 cc61 f900 1a01 c326 e913 a724
00000170: 2937 10a0 1c06 6f80 aa9a af00 074c a701
00000180: bd17 da80 6b49 0181 0f62 f380 4876 cc24
00000190: 6659 49a2 8423 e6ab fb28 3c2e 3fd1 f8a7
000001a0: 0cbc 4da9 2f82 1c32 625d 3bad d5df 3bad
000001b0: db9c 131a 9b8c d8a8 be67 e42e 0fa1 30a4
000001c0: 93a5 80ac dde4 caad 0fa1 73af 523e e62e
000001d0: 1d35 c1a2 1ece 4b81 4575 f680 dc7c 8280
000001e0: bea6 8e01 3de0 1481 4f9e 2081 1165 6080
000001f0: 4088 3681 5a2c 2381 e595 7880 a58a 9a81
00000200: 999f 2f80 2cb2 1781 4d7d 7080 9a20 4c81
00000210: a118 ea80 f27b 1c01 138a f680 46fc 53a2
00000220: 0ed2 849e e1ea 7a25 dce5 2b27 6261 67a4
00000230: 4299 55a6 8d52 36aa 7b5d 0223 2b08 5a92
00000240: 5aef 07be 2957 37bd 62ef d2bd d482 e7bd
00000250: e8f6 44be 8e6c 4bbe 32f3 9dbd e968 7abe
00000260: eb39 53be 1f8b 403d 211a 1d3d dc60 073e
00000270: f75c 18be b064 f0bd 85e2 2c3d f5a2 783d
00000280: 0186 9d3d d66b 1b3e 2ef4 223c e628 013e
00000290: a86c 1c3e 1303 96bd 1ebd 14be ae56 8a3d
000002a0: fdd6 04bd 6841 a8bd c537 c83d f49e 993c
000002b0: f736 953d 0afc 333d 867e 313c ef02 4e3a
000002c0: 8f91 433d 59cf a03c c8b4 12bc c76c f3bc
000002d0: a582 393c 1e89 843d f5e9 673b 8475 17bd
000002e0: d2bf 0bbe 6ea6 213a e06e 953d 902a b5bc
000002f0: ec6a 6c3d c03e 3d3e e55c 793e 8267 103e
00000300: 36b7 67bb a997 a1bc afc0 a23d 4809 d1bd
00000310: 48e4 943d 006b 343e 3d63 1f3e 88af 293e
00000320: 5d97 df3d 2db7 10be 0f52 d9bd d082 573d
00000330: de2b a03d df70 823c 1b73 153e 4588 7bbd
00000340: 8ca0 82bd e726 00bc 6161 ddbd 2d72 02be
00000350: fa6a 1c3e 8744 15bd 0e37 38bd f891 8e3a
00000360: 7f6e 4f3e b78c 043e 3e31 d93d 3e5e c23d
00000370: e8e6 b2bd 2275 a43d 65ae 7ebd 6adb 943a
00000380: 6894 133e db06 803a dd32 973a 344f 983a
00000390: 529c 7a3a a445 8d3a 6bed 8f3a f852 803a
000003a0: 2e23 933a 4f95 963a abd4 5c3d a9e2 073e
000003b0: 7456 8e3d f9d1 0b3d d719 b1bd 178b 0f3e
000003c0: 9dbd 473d 5faf e73d dd4a 133e a679 ac3b
000003d0: 641f cebd f6de e5bc 4af4 03bd c710 c83a
000003e0: 5c1a 82bd a0a4 19be cc29 89bd b1b3 a7bc
000003f0: e841 d7bb 9444 eb3c b97e 363d 5d9f 8b3b

encoder.6.bias f4 [32]
-0.00024278589 0.010460702 0.19120711 0.19220218 0.14742489 -0.0026722902 -0.10244938 0.14872953
-0.14316693 0.31855124 -0.02076217 -0.07192947 -0.014406678 0.17969906 0.13636631 0.08968929
-0.023347365 0.04889971 0.032075163 0.024063483 -0.16010775 0.2630447 0.16831298 0.1005626
0.17715427 -0.232345 0.20848814 -0.11158417 0.16228378 -1.6335562e-10 0.20513938 0.1196116
00000000: 5794 7eb9 5d63 2b3c cccb 433e a6d0 443e
00000010: 8df6 163e 9721 2fbb fbd0 d1bd 8e4c 183e
00000020: 5a9a 12be 2619 a33e 6d15 aabc c24f 93bd
00000030: fd09 6cbc 0803 383e 9ca3 0b3e 05af b73d
00000040: f942 bfbc 104b 483d 3f61 033d c820 c53c
00000050: 49f3 23be cbad 863e 3d5a 2c3e c4f3 cd3d
00000060: ee67 353e d9eb 6dbe ea7d 553e 3e86 e4bd
00000070: b82d 263e 859c 33af 0f10 523e edf6 f43d

encoder.10.weight f4 [10, 512]
-5.8906305e-38 8.206744e-39 -5.2204763e-38 -8.959252e-39 -2.348046e-38 -3.06548e-39 5.883783e-39 2.233385e-38
-5.061009e-38 1.6704027e-38 -1.1797986e-38 1.3490435e-38 3.940238e-39 4.0925151e-38 3.6500154e-38 3.2480137e-38
0.12880424 -0.0016408603 -0.1364156 -0.060917582 0.13886711 0.098941796 -0.02957736 0.014895104
0.119714506 0.099642724 0.047740273 0.0456464 0.11814078 0.15612788 0.12272003 0.03197141
0.08138843 0.051452857 0.08469352 0.1036222 0.069744356 0.07258781 0.051707707 0.026389759
0.08850773 0.1520289 0.055147868 0.075027734 0.04795144 0.06589996 0.14883743 0.14315565
0.12219648 0.0024670584 0.008002391 0.06579872 0.2524464 0.18190867 -0.017357145 -0.00024295104
0.16860028 0.12670222 0.017112866 0.01081359 0.096126094 -0.028016346 0.17840646 0.08156611
0.113152355 0.038549293 0.001983266 0.03541992 0.13894334 0.12139683 0.01869682 0.0016516664
0.09098778 0.19603664 0.028094169 -0.0051010074 0.104913615 0.10335318 0.011005245 0.04471567
-1.8401801e-38 1.4835411e-15 -3.7368376e-38 5.9588166e-38 -1.6948156e-38 -5.450104e-39 3.156454e-38 -2.7904852e-38
-4.4582417e-38 5.80215e-38 -2.4142988e-38 -3.8190697e-38 9.647805e-39 3.2691985e-38 -3.786624e-38 5.06911e-38
0.24534552 -0.28236553 -0.45400882 -0.25196812 0.48178586 -0.15362866 -0.6791004 -0.08855007
0.33467767 0.30336213 -0.19727826 -0.51271313 0.3140206 0.27294466 0.046917595 -0.1951912
0.15333515 -0.033830542 -0.051977888 0.030547746 0.16748108 0.15499468 0.015664857 -0.019106245
0.10128621 0.11319725 0.087305814 0.056547076 0.19265501 -0.0035428002 0.090357445 0.03858019
0.27166182 -0.04077876 -0.33296642 -0.0595321 0.44465017 -0.19936872 -0.2462314 0.08885175
0.51810855 0.41550148 -0.09597949 -0.02747063 0.34170112 0.25455633 -0.1959203 -0.19674306
0.03990795 -0.087594435 0.18099804 0.124381535 0.038520798 0.14323887 0.15381308 0.0815777
-0.008926871 0.066476054 0.19608629 0.122403935 0.059022192 0.05412845 0.2118857 0.16918221
0.0373842 0.035675306 0.037064634 0.038472567 0.032925565 0.028666068 0.03177872 0.02398144
0.032541487 0.02808749 0.022847312 0.023306949 0.02580059 0.012544009 -0.0011892194 -0.013126478
0.31464335 0.11854044 -0.06615952 -0.19010986 0.20906605 0.13548194 0.00069700927 -0.04159022
0.20487338 0.112477325 0.11225366 0.02637939 0.19352764 0.20563476 0.09115583 -0.118817225
0.00066540285 0.0014105327 0.0025157125 0.0024668826 6.292126e-05 0.00018455405 0.00012961857 4.402805e-05
2.9121189e-05 9.448552e-05 0.00014656526 4.835817e-05 7.3159317e-06 -8.806954e-06 1.9775418e-06 1.5804177e-05
0.10435664 0.02882499 0.02908854 0.06229064 0.17844129 0.14012933 0.009330827 -0.00075937284
0.12167969 0.18101807 0.08158415 0.023647593 0.1245605 0.05924337 0.09779785 0.052704122
0.12675054 0.08561242 0.010250681 0.040031247 0.1560606 0.16051002 0.035084225 0.02615176
0.11791399 0.15392561 0.057039477 0.042910203 0.12675421 0.08985287 0.1234229 0.08523361
0.13947514 0.07702408 0.0018823324 0.022906492 0.17887099 0.08657535 0.019315222 0.0265585
0.11713038 0.12736312 0.08353012 0.015366014 0.16568415 0.10345838 0.09352503 -0.013000691
00000000: b45b a081 105d 5900 691d 8e81 c08e 6180
00000010: f8ad ff80 5061 2180 9811 4000 b031 f300
00000020: 16c6 8981 08e4 b500 fc77 8080 d8e5 9200
00000030: c8e7 2a00 56d1 5e01 cab9 4601 b4d6 3001
00000040: 42e5 033e 2312 d7ba 88b0 0bbe b784 79bd
00000050: 2e33 0e3e ffa1 ca3d 384c f2bc 980a 743c
00000060: e12c f53d 7c11 cc3d 4e8b 433d b8f7 3a3d
00000070: cbf3 f13d fddf 1f3e a454 fb3d 74f4 023d
00000080: faae a63d 3bc0 523d cc73 ad3d e037 d43d
00000090: 21d6 8e3d eba8 943d 76cb 533d 562f d83c
000000a0: 8a43 b53d 77ad 1b3e bbe2 613d 24a8 993d
000000b0: bb68 443d 8ff6 863d d768 183e 6597 123e
000000c0: 2642 fa3d 5fae 213b 761c 033c 7bc1 863d
000000d0: a840 813e 4446 3a3e 9230 8ebc acc0 7eb9
000000e0: 8da5 2c3e 3abe 013e 4830 8c3c 7c2b 313c
000000f0: c2dd c43d 8982 e5bc 2fb0 363e 220c a73d
00000100: 6cbc e73d dde5 1d3d aff9 013b 7a14 113d
00000110: 2a47 0e3e e79e f83d 132a 993c ba7c d83a
00000120: cd57 ba3d d4bd 483e be25 e63c 5a26 a7bb
00000130: f3dc d63d d5aa d33d 584f 343c c727 373d
00000140: bc60 c880 02cd d526 ea73 4b81 e436 a201
00000150: 908c b880 ac58 3b80 8cda 2b01 b0ed 1781
00000160: d2ba 7281 16f3 9d01 6a72 0381 10ee 4f81
00000170: 280e 6900 fafd 3101 d629 4e81 8afe 8901
00000180: db3b 7b3e 3792 90be d873 e8be f701 81be
00000190: a3ac f63e d550 1dbe 86d9 2dbf bd59 b5bd
000001a0: df5a ab3e 4852 9b3e 5003 4abe 2b41 03bf
000001b0: 4fc7 a03e 67bf 8b3e aa2c 403d 34e0 47be
000001c0: e403 1d3e e591 0abd c4e6 54bd 443f fa3c
000001d0: 2980 2b3e edb6 1e3e 9653 803c b384 9cbc
000001e0: 256f cf3d f6d3 e73d 64cd b23d e89d 673d
000001f0: 5b47 453e 532e 68bb 530d b93d 4306 1e3d
00000200: 4217 8b3e a107 27bd 937a aabe eed7 73bd
00000210: 30a9 e33e 5027 4cbe 1624 7cbe e8f7 b53d
00000220: c3a2 043f 9cbc d43e e590 c4bd 160a e1bc
00000230: 73f3 ae3e 3555 823e 559f 48be 0377 49be
00000240: 8576 233d b664 b3bd 8d57 393e bfbb fe3d
00000250: fcc7 1d3d 36ad 123e 2d81 1d3e 3612 a73d
00000260: 0342 12bc 9924 883d d8ca 483e eaae fa3d
00000270: 41c1 713d cbb5 5d3d 91f8 583e 1a3e 2d3e
00000280: 2d20 193d 4520 123d 16d1 173d 6995 1d3d
00000290: f5dc 063d 1ad5 ea3c 672a 023d ba74 c43c
000002a0: 394a 053d bc17 e63c 492a bb3c 37ee be3c
000002b0: c25b d33c 6385 4d3c 95df 9bba 7010 57bc
000002c0: ef18 a13e 55c5 f23d a47e 87bd 29ac 42be
000002d0: 6915 563e c7bb 0a3e 80b7 363a 825a 2abd
000002e0: 54ca 513e 835a e63d 3fe5 e53d 9719 d83c
000002f0: 1c2c 463e eb91 523e e8af ba3d 7256 f3bd
00000300: 6e6e 2e3a a0e1 b83a a7de 243b 6cab 213b
00000310: 98f4 8338 da84 4139 38ea 0739 c2aa 3838
00000320: 4749 f437 8726 c638 50af 1939 31d4 4a38
00000330: 607b f536 94c1 13b7 e9b5 0436 3693 8437
00000340: efb8 d53d 6322 ec3c 174b ee3c 7824 7f3d
00000350: 50b9 363e 107e 0f3e 53e0 183c a610 47ba
00000360: 3433 f93d cd5c 393e 9715 a73d 99b8 c13c
00000370: 9319 ff3d 2da9 723d 3d4a c83d 47e0 573d
00000380: e5ca 013e 9155 af3d 79f2 273c cef7 233d
00000390: 5ace 1f3e bd5c 243e 7ab4 0f3d 373c d63c
000003a0: e47c f13d ad9e 1d3e 3aa2 693d 9cc2 2f3d
000003b0: dbcb 013e c804 b83d 25c5 fc3d f58e ae3d
000003c0: 92d2 0e3e cdbe 9d3d 98b8 f63a 65a6 bb3c
000003d0: f529 373e 6b4e b13d f53a 9e3c 3691 d93c
000003e0: 0de2 ef3d 7a6b 023e d711 ab3d bcc1 7b3c
000003f0: 1ba9 293e fde1 d33d 0d8a bf3d da00 55bc

encoder.10.bias f4 [10]
0.22174712 0.035390195 0.2099862 -0.028562669 0.13630572 -0.0014617161 0.18588641 0.0035050295
-3.0871082e-20 0.15028954
00000000: ad11 633e 4ff5 103d 9f06 573e 42fc e9bc
00000010: ba93 0b3e 0e97 bfba 0259 3e3e a3b4 653b
00000020: d9c8 119f 80e5 193e

decoder.0.weight f4 [512, 10]
0.07200852 0.2248223 0.28080535 -1.9048831e-38 0.23815714 -5.4612693e-38 0.24231207 1.6627031e-14
1.1713836e-38 0.19152531 -0.2646016 0.113853216 -0.24822736 -0.10915176 0.21294776 -4.8855654e-38
0.10514767 -0.05697096 5.1360335e-38 0.29637408 0.027406245 -0.3188694 0.20992066 -6.10139e-38
0.15119247 1.1792355e-38 -0.37631762 3.7108052e-07 5.469856e-39 -0.21040615 0.18227546 -0.20123623
0.27556464 0.19986075 0.5164439 1.3746603e-38 0.030056458 -0.033909805 3.4382197e-38 -0.011523778
-0.091896765 0.084008746 0.13898703 -0.007165484 0.15279227 -4.885847e-38 0.39693016 0.08333283
3.2689112e-38 0.031676583 -0.37358403 -0.11911756 0.106319584 -0.05610313 0.13386449 -1.355829e-39
0.2726419 -0.09947372 -4.6214392e-38 0.24031383 0.15155609 -0.31928822 -0.1312384 0.07283026
-0.047749117 2.5869068e-38 0.34529346 0.231182 3.231132e-39 0.07162121 -0.16249119 0.1627692
-0.2038699 -4.2916733e-38 -0.36374477 -1.618491e-39 0.030666765 -4.773951e-38 3.0636148e-38 0.11296949
-0.048350286 -0.093438365 0.020166278 3.901733e-39 -0.2489219 -1.7362099e-38 0.25515455 -0.039115153
4.9912923e-38 -0.23661736 -0.023852713 -0.021671789 -0.021746114 1.0884676e-38 -0.019195652 5.9744864e-38
-0.009363185 -5.4568726e-38 -4.5811586e-38 -0.020654054 -0.011232512 -0.010518144 -0.010244203 -0.008384321
-0.003426041 2.582909e-38 -0.014167183 -0.051866442 -2.420728e-38 -0.009615106 -0.087286524 0.10834946
0.047704775 -0.02554755 -0.23078631 -2.4359976e-38 0.12948073 0.2958182 1.8533408e-38 -0.25915486
-0.025754014 -0.01617166 -0.040993292 1.7742182e-38 -0.027322806 -2.9496144e-38 -0.033695403 6.2649263e-38
-3.485796e-38 0.053226423 -0.15142144 0.038120504 0.36552852 -0.28468552 -0.35304606 -1.6699655e-38
0.33854935 0.28272504 4.0513966e-38 0.20082681 -0.014391022 -0.01620712 -0.014926148 3.4625942e-38
-0.019024469 -3.77169e-39 -0.025850354 -7.005294e-39 -1.433264e-38 -0.018283447 0.39054453 0.054185856
0.35902116 -0.039685883 -0.2383547 4.318904e-38 0.04122159 0.2818446 -7.922964e-39 -0.21767698
0.063085265 0.25967333 0.09913833 0.0026332128 0.04988174 2.0521392e-38 -0.070672035 0.015001716
-3.844797e-39 0.20509262 -0.096081965 -0.0717222 0.067698985 -0.19564903 0.49506482 -1.674863e-38
-0.12417643 -0.067710616 -1.3201355e-38 -0.0010237326 -0.08119709 -0.18390545 -0.12164398 -0.008893456
0.25960836 -2.0150155e-38 0.111477874 0.2994064 1.0503884e-38 0.15261668 -0.02567415 -0.044159997
-0.035940275 -0.0038167983 0.03907695 -2.0974435e-38 -0.052448362 -0.00048053975 3.9341973e-38 0.0004791041
-0.13486308 -0.022699814 0.15985703 0.04800336 -0.050699264 4.3367096e-38 0.69425863 0.21471047
-1.0340446e-38 0.32242817 -0.07003841 -0.11941708 -0.08856105 -0.03920568 0.052736033 -9.366821e-39
-0.066665895 -0.09861308 -2.4000302e-38 -0.16857226 -0.2507387 0.42932326 0.18848611 0.07885538
0.013911512 2.0758594e-38 -0.29897535 0.31402838 -3.089517e-39 -0.25370434 0.14472774 -0.15108566
0.05327436 2.2568838e-06 -0.068083815 2.8138185e-38 0.29915133 -0.052950293 -4.546143e-38 -0.3000083
-0.026097834 0.22888088 0.17900711 -0.01322222 -0.10927009 1.4856636e-38 0.044912945 -0.07293182
2.564596e-38 0.14740284 0.25089678 -0.11998243 -0.09258894 0.1669337 0.15666057 -8.860315e-39
00000000: 3479 933d d137 663e b8c5 8f3e 646c cf80
00000010: 77df 733e 7eab 9481 a820 783e 53c3 9528
00000020: 698d 7f00 361f 443e dc79 87be e02b e93d
00000030: 502f 7ebe f58a dfbd fa0e 5a3e 6cff 8481
00000040: a957 d73d 625a 69bd eed0 8b01 58be 973e
00000050: 1083 e03c da42 a3be 71f5 563e 7b18 a681
00000060: 33d2 1a3e 4a68 8000 b4ac c0be eb38 c734
00000070: bc8f 3b00 b674 57be 6ba6 3a3e df10 4ebe
00000080: cf16 8d3e 4ca8 4c3e ab35 043f f0af 9500
00000090: f638 f63c 02e5 0abd ca31 3b01 3ace 3cbc
000000a0: 5f34 bcbd c70c ac3d 9e52 0e3e 70cc eabb
000000b0: 9475 1c3e 6201 8581 6e3a cb3e 67aa aa3d
000000c0: f9f9 3101 4ebf 013d 6846 bfbe e8f3 f3bd
000000d0: 15be d93d 65cc 65bd c613 093e 80c3 0e80
000000e0: b897 8b3e e1b8 cbbd 769d 7b81 d414 763e
000000f0: 8531 1b3e bf79 a3be 5c63 06be 0828 953d
00000100: 9494 43bd 38d8 0c01 4eca b03e f9ba 6c3e
00000110: 152f 2300 24ae 923d 1764 26be f8ac 263e
00000120: 45c3 50be 32a9 6981 c13c babe b29f 1180
00000130: de38 fb3c 95f5 8181 8fcc 2601 8c5c e73d
00000140: f30a 46bd 9d5c bfbd c033 a53c 727c 2a00
00000150: 62e5 7ebe 780e bd80 9ea3 823e 3637 20bd
00000160: 3be0 8701 d24b 72be c466 c3bc 0989 b1bc
00000170: e824 b2bc 0c86 7600 3340 9dbc 18a4 a201
00000180: 0b68 19bc da8c 9481 086c 7981 b132 a9bc
00000190: 9208 38bc 4b54 2cbc 4dd7 27bc 645e 09bc
000001a0: 6e87 60bb 7fa0 0c01 791d 68bc e871 54bd
000001b0: 06cc 0381 ad88 1dbc 47c3 b2bd 52e6 dd3d
000001c0: 1566 433d 1849 d1bc 3f53 6cbe daa0 0481
000001d0: 9996 043e 7c75 973e 9acf c900 f2af 84be
000001e0: 15fa d2bc 6e7a 84bc 95e8 27bd fc31 c100
000001f0: 14d4 dfbc a097 2081 3104 0abd 2a8c aa01
00000200: e8c8 3d81 f303 5a3d 390e 1bbe 3f24 1c3d
00000210: 8e26 bb3e 4dc2 91be 74c2 b4be d8d7 b580
00000220: 5756 ad3e 56c1 903e 3a94 5c01 8ba5 4d3e
00000230: 52c8 6bbc cbc4 84bc cd8c 74bc 8585 3c01
00000240: 34d9 9bbc f011 2980 1fc4 d3bc e947 4c80
00000250: 9211 9c80 2bc7 95bc 74f5 c73e fdf1 5d3d
00000260: 9fd1 b73e aa8d 22bd 4113 74be bc24 6b01
00000270: f8d7 283d ef4d 903e 0046 5680 b7e6 5ebe
00000280: d932 813d e7f3 843e 0909 cb3d fb91 2c3b
00000290: cc50 4c3d 4b75 df00 80bc 90bd c2c9 753c
000002a0: bbdd 2980 cd03 523e 9fc6 c4bd 17e3 92bd
000002b0: c4a5 8a3d 3858 48be 2379 fd3e 5e60 b680
000002c0: 3650 febd ddab 8abd 02c0 8f80 c42e 86ba
000002d0: a94a a6bd b651 3cbe 7b20 f9bd dcb5 11bc
000002e0: 63eb 843e 6f6a db80 834e e43d cc4b 993e
000002f0: 8e60 7200 8c47 1c3e 9852 d2bc 1de1 34bd
00000300: 1c36 13bd 4023 7abb 270f 203d 3164 e480
00000310: 18d4 56bd f4f0 fbb9 b532 5601 4430 fb39
00000320: 8c19 0abe f6f4 b9bc 90b1 233e 2c9f 443d
00000330: 08aa 4fbd e91c 6c01 efba 313f 10dd 5b3e
00000340: f598 7080 4e15 a53e 4c70 8fbd f190 f4bd
00000350: 7f5f b5bd 2396 20bd bd01 583d e3fe 6580
00000360: 2188 88bd a8f5 c9bd 8aab 0281 359e 2cbe
00000370: d360 80be 42d0 db3e 8102 413e ee7e a13d
00000380: 1ced 633c 840a e200 4c13 99be 54c8 a03e
00000390: 51a4 2180 89e5 81be 8233 143e 33b6 1abe
000003a0: 3736 5a3d f874 1736 876f 8bbd e832 1901
000003b0: 5d2a 993e 68e2 58bd fc83 7781 b09a 99be
000003c0: 20cb d5bc c05f 6a3e a44d 373e 03a2 58bc
000003d0: ffc8 dfbd 42c6 a100 a3f6 373d 475d 95bd
000003e0: 40a1 0b01 c5f0 163e 8b75 803e 59b9 f5bd
000003f0: 459f bdbd abf0 2a3e a16b 203e f47a 6080

decoder.0.bias f4 [512]
0.16495709 0.14840141 0.1613682 0.3398652 -0.17368829 -0.16702034 -0.34045267 0.09093607
-0.12203705 -2.0580219e-05 -0.00026064608 0.120483376 0.013836316 0.121322945 -0.002309068 -0.026828377
0.2984509 -0.1682719 0.15508847 -0.02443189 0.24423201 -0.22591871 0.19772331 0.22453047
-0.08305088 0.0141407335 -0.029395109 -0.017096475 -0.34864247 0.08358219 0.011960487 -0.07967042
0.18474206 -0.18122746 -0.23631501 -0.031524733 -0.045157082 -0.0524819 -0.11297121 0.08667038
-0.06054532 0.1669337 4.5769273e-05 -0.17066495 0.13923891 0.28716025 -0.01624899 0.09744278
0.06565435 0.3403409 0.32150936 0.25749746 -9.055251e-11 0.13796277 -0.21934086 -0.011301022
-0.0033070932 0.27245396 0.32514226 0.11543396 0.074623175 -0.001810945 0.13160579 0.02473536
0.2961225 -0.085449964 -0.027640799 -4.8418458e-17 -0.11248884 0.17528056 0.106508985 0.14744003
0.22765058 0.0060894233 -0.09568985 -0.25147325 0.19234121 -0.2672603 0.045838095 0.3715969
-0.009000882 -0.08741613 0.39195383 0.16596904 0.008654194 0.15498477 0.012924381 0.063324414
-1.102505e-14 -0.19092916 -0.16376998 -0.014099113 0.22406869 0.03588349 -3.3729441e-10 -0.09968428
0.2148676 0.041328292 -0.17547369 0.31218222 -0.016253581 0.18429206 0.20997633 0.44672915
-0.006772608 -0.004002558 -0.0057169828 -0.2607149 0.026083866 0.21752785 -0.003973688 -9.0059584e-05
-0.23918079 0.043346923 -0.27565157 0.06862321 -0.053898714 0.03887853 -0.091175765 0.11630671
0.26839653 0.20119604 -0.014039442 0.34932855 0.17780651 -0.0051859324 -0.0067772507 0.22469407
-0.011149302 0.06462711 -0.044907834 0.12203797 0.07685273 0.07938878 0.08665684 -0.0016377796
-0.03130204 0.17052355 0.42456943 0.38205418 0.19021341 0.0902233 0.1076831 0.067674905
0.17954597 0.008780883 0.12815717 0.120926924 0.002350152 -0.0060582217 0.15909386 0.07034387
0.07993471 -0.3327004 0.21923861 0.03540247 -1.6703596e-06 0.29125464 0.047769994 -0.0056669894
0.33113688 0.11823932 0.29794154 0.15195994 0.1580818 -0.0007283892 -0.06733987 -0.043097354
0.0718032 -0.134043 0.078628 0.04247752 0.05882705 0.015163768 0.07774947 0.21359067
0.21514244 0.29303774 0.039728876 -2.2362945e-38 -0.028131317 0.12475918 -0.228276 0.046308126
0.11416454 -0.0010542821 0.50158936 -0.00732402 -0.015985873 0.0818116 -0.00080621615 0.24621838
0.12047945 -0.04128252 -0.084692344 2.269943e-38 0.17609 0.04303002 -0.0033208653 -0.07761703
-0.2750732 -0.04571321 -0.027307274 -0.2645303 0.29623005 0.13223608 -0.070284255 0.077154495
-5.28256e-40 0.006946388 0.2582944 -0.01258924 -0.051883675 -0.04107336 0.07597918 0.04647072
-0.11696738 -0.0004933564 0.22317514 0.07585796 -6.49446e-28 0.051106844 0.19834706 0.33145866
-0.0007478666 -0.013498728 -0.03433621 0.13128951 -0.17046519 0.35906652 -0.0003194649 -0.21251588
0.06398709 0.13297568 -2.8095056e-16 -0.42147487 -0.07025604 -0.0021196832 0.20474772 0.098121986
0.0024291587 0.12670182 0.04770864 -0.047750093 0.18168586 -0.0026883122 -0.16244903 -0.040228643
-0.085747674 0.30772254 -0.08549023 0.32302967 -0.11050154 -0.37638977 -0.06424646 -0.0032356868
00000000: 83ea 283e 8af6 173e b53d 253e d002 ae3e
00000010: 58db 31be 6107 2bbe d04f aebe b13c ba3d
00000020: 90ee f9bd afa3 acb7 53a7 88b9 fdbf f63d
00000030: b7b1 623c 2a78 f83d bc53 17bb 2fc7 dbbc
00000040: 8ece 983e 784f 2cbe 83cf 1e3e 6325 c8bc
00000050: f517 7a3e 3c57 67be fb77 4a3e 51eb 653e
00000060: 9416 aabd 89ae 673c 03ce f0bc e80d 8cbc
00000070: 4481 b2be 242d ab3d ebf5 433c 3f2a a3bd
00000080: 062d 3d3e b193 39be 90fc 71be 1420 01bd
00000090: a2f6 38bd 43f7 56bd 735d e7bd 3d80 b13d
000000a0: 5ffe 77bd abf0 2a3e 62f8 3f38 cbc2 2ebe
000000b0: a594 0e3e ab06 933e 9a1c 85bc 1590 c73d
000000c0: ca75 863d 2a41 ae3e e09c a43e b5d6 833e
000000d0: 8820 c7ae 1d46 0d3e e49a 60be ec27 39bc
000000e0: d1bb 58bb 167f 8b3e 0c79 a63e a468 ec3d
000000f0: 09d4 983d 3b5d edba abc3 063e cfa1 ca3c
00000100: 5e9d 973e 6400 afbd f56e e2bc 6d4a 5fa4
00000110: 8d60 e6bd bf7c 333e 6221 da3d 85fa 163e
00000120: 3c1d 693e c989 c73b 0af9 c3bd 1ac1 80be
00000130: 18f5 443e 58d6 88be bac0 3b3d f341 be3e
00000140: 6f78 13bc 3a07 b3bd 2cae c83e caf3 293e
00000150: 52ca 0d3c 54b4 1e3e c8c0 533c 3bb0 813d
00000160: 129c 46a8 ef82 43be 51b3 27be f7ff 66bc
00000170: 4372 653e 91fa 123d f86d b9af 4627 ccbd
00000180: 4106 5c3e db47 293d 60af 33be 59d6 9f3e
00000190: 3b26 85bc 0fb7 3c3e 0904 573e afb9 e43e
000001a0: c1ec ddbb e427 83bb 8755 bbbb 6c7c 85be
000001b0: d5ad d53c 9fbf 5e3e b635 82bb 5fde bcb8
000001c0: cfeb 74be 8b8c 313d 3422 8dbe 538a 8c3d
000001d0: e6c4 5cbd 183f 1f3d 5cba babd 3632 ee3d
000001e0: 456b 893e 5606 4e3e b005 66bc 31db b23e
000001f0: e912 363e c1ee a9bb b313 debb 3416 663e
00000200: 90ab 36bc 385b 843d 47f1 37bd 0bef f93d
00000210: f764 9d3d 9696 a23d 2479 b13d c4aa d6ba
00000220: 9136 00bd ba9d 2e3e 2a61 d93e 9b9c c33e
00000230: 4ec7 423e fec6 b83d f588 dc3d 2499 8a3d
00000240: e6da 373e b1dd 0f3c a23b 033e 89a8 f73d
00000250: 0205 1a3b 0c84 c6bb 80e9 223e 7210 903d
00000260: cfb4 a33d b557 aabe 1680 603e 2e02 113d
00000270: 1e31 e0b5 541f 953e 78aa 433d 27b2 b9bb
00000280: c68a a93e 7527 f23d cb8b 983e 639b 1b3e
00000290: 32e0 213e 5ff1 3eba 7ce9 89bd da86 30bd
000002a0: 8e0d 933d 9142 09be b807 a13d e8fc 2d3d
000002b0: a2f4 703d 7471 783c 1d3b 9f3d 83b7 5a3e
000002c0: 4d4e 5c3e 0b09 963e bfba 223d cb82 f380
000002d0: a673 e6bc be81 ff3d 2fc1 69be 97ad 3d3d
000002e0: 19cf e93d d62f 8aba 2968 003f 55fe efbb
000002f0: cef4 82bc d78c a73d 4058 53ba ac20 7c3e
00000300: eebd f63d dc17 29bd 2e73 adbd c72c f700
00000310: f050 343e 3f40 303d e0a2 59bb adf5 9ebd
00000320: 65d6 8cbe c63d 3bbd 81b3 dfbc 8470 87be
00000330: 77ab 973e e568 073e 31f1 8fbd 2d03 9e3d
00000340: 90c0 0580 879e e33b 2a3f 843e 1a43 4ebc
00000350: fa83 54bd 8a3c 28bd f99a 9b3d 1558 3e3d
00000360: 988c efbd 9654 01ba 0688 643e 6b5b 9b3d
00000370: 52d1 4d92 6955 513d 7e1b 4b3e f3b4 a93e
00000380: 7a0c 44ba c529 5dbc 20a4 0cbd c270 063e
00000390: 6d8e 2ebe 91d7 b73e da7d a7b9 c39d 59be
000003a0: aa0b 833d c72a 083e fcf4 a1a5 8ecb d7be
000003b0: 66e2 8fbd 62ea 0abb 63a9 513e 2ef4 c83d
000003c0: 8532 1f3b 1fbe 013e 236a 433d 9a95 43bd
000003d0: dc0b 3a3e 652e 30bb 0a59 26be cac6 24bd
000003e0: 7a9c afbd cf8d 9d3e 8015 afbd 2564 a53e
000003f0: a24e e2bd 29b6 c0be a693 83bd d10d 54bb

decoder.3.weight f4 [32, 16, 3, 3]
0.00024985542 -0.002902405 0.014175643 -0.16083273 -0.11931475 -0.16813794 -0.016243488 -0.076267965
-0.011519356 -0.067634754 0.14350931 -0.26332057 0.013025928 0.115525365 -0.18884666 -0.040964596
0.078331515 -0.11697585 -0.16661002 0.035838842 -0.021259703 0.048791282 0.2834997 0.11581478
0.12414831 0.18278408 0.00592417 -0.15566571 -0.10538673 -0.087391876 0.0853539 0.20224184
0.07061639 0.057624638 -0.03010295 -0.007918252 -0.044134025 0.21864294 -0.10225045 0.13133007
0.244842 -0.21660705 0.081521496 -0.026221594 0.35220993 -3.7349105e-38 -0.11957087 -7.448301e-12
-0.07728707 -0.09613665 0.0011759596 -0.011616323 -0.14317206 -0.0020223774 -0.002780193 -0.052404672
0.013746726 -0.100220345 0.071838394 0.22357257 0.037605274 -0.040559314 -0.009878914 0.0066136727
0.29660657 0.08237777 0.14169405 0.31908473 0.009762247 0.18800431 0.15109675 0.16870528
-0.04970189 0.39327496 -0.016269496 0.13627435 -0.08380734 0.09929531 -0.027465872 0.09955356
0.13515176 0.13767855 0.05094017 0.06912188 0.031303123 0.20895846 -0.10539205 -0.0643344
-0.033484697 -0.06414196 -0.1255378 0.02129285 -0.09854361 0.17868379 0.28098905 0.229418
-0.07335798 0.38786933 -0.18863325 -0.004301373 -0.2515344 -0.033487532 -0.008721485 -0.022892768
-0.03000842 -0.021632291 0.08762956 -0.093249545 0.19453903 0.2194127 0.124032095 -0.13157468
0.3710577 0.13383625 0.31322065 0.1705209 -0.055978242 0.021765348 0.0915464 -0.010736076
0.1299599 0.46450794 -0.006348369 0.15063043 -0.09294069 0.044543397 -0.08802746 0.09350434
-0.018356105 -0.17707618 0.07784015 0.017821226 -0.071979545 -0.06600876 -0.03992674 0.09686839
0.2228805 0.053338535 0.2996014 0.34411997 0.0502167 -0.03246547 -0.057257414 0.037586864
-0.004971028 -0.07967463 0.023128478 -0.057535753 0.05128561 -0.11302398 0.028920475 -0.009457744
0.041423764 0.16113442 -0.17407557 -0.11078578 0.11550788 0.098896034 0.10395981 0.044337463
0.3711477 0.062314562 -0.26361912 -0.18224019 -0.2984281 -0.4413473 0.093956664 -0.21183445
-0.025550736 0.06641715 -0.030636843 -0.2261191 0.04119406 -0.18306598 -0.19869873 0.06684541
-0.027691383 -0.11918836 -0.017762503 -0.025924418 -0.103485994 -0.03276653 -0.09111011 -0.02589961
0.09518634 0.06997183 0.15122542 0.12228958 0.1231399 -6.293054e-06 -0.035251226 -0.020267485
-0.061811663 -0.122444205 -0.005107508 -0.04914142 0.2836567 -0.017194161 -0.017166177 -0.022950651
-0.10285064 -0.009945785 0.10726303 -0.1322741 0.02279649 -0.1392579 -0.008374799 -0.18005717
-0.10899762 -0.13432753 -0.08521718 0.085897304 0.06005145 -0.107825786 0.28018942 0.13020577
-0.05972892 -0.24601774 -0.020597545 -0.34864628 -0.19071199 -0.18756337 0.12799028 0.002036535
-0.053103767 -0.0653646 -0.10188822 -0.023754062 0.15740266 0.09759419 -0.02658077 0.28884435
0.39094722 -0.011865812 0.09944143 -0.14665118 -0.16134192 -0.19370557 -0.15252903 -0.13208985
0.052117005 0.09088296 0.025766939 -0.0024086882 -0.050862115 -0.01903274 -0.0076480443 0.15600441
-0.012823753 -0.025689801 0.15677124 0.03345075 -0.021940192 -0.06465671 -0.17634192 -0.20155428
00000000: 07ff 8239 4736 3ebb f540 683c 56b1 24be
00000010: 4b5b f4bd 5a2c 2cbe 1011 85bc 6132 9cbd
00000020: aebb 3cbc 1784 8abd 1bf4 123e f4d1 86be
00000030: b46a 553c 9098 ec3d 0561 41be 7eca 27bd
00000040: 466c a03d 0991 efbd d19b 2abe c0cb 123d
00000050: d428 aebc 5ed9 473d df26 913e 4d30 ed3d
00000060: 7841 fe3d c02b 3b3e 8a1f c23b d566 1fbe
00000070: ffd4 d7bd 83fa b2bd 07ce ae3d 7c18 4f3e
00000080: 539f 903d d007 6c3d 769a f6bc 8ebb 01bc
00000090: e1c5 34bd efe3 5f3e af68 d1bd 647b 063e
000000a0: dcb7 7a3e 3dce 5dbe bef4 a63d abce d6bc
000000b0: dc54 b43e 0e59 4b81 93e1 f4bd 2a08 03ad
000000c0: af48 9ebd 4be3 c4bd a822 9a3a 6452 3ebc
000000d0: b29b 12be dd89 04bb e633 36bb 48a6 56bd
000000e0: f339 613c 5340 cdbd 0220 933d 35f0 643e
000000f0: fd07 1a3d 8621 26bd 2bdb 21bc 82b7 d83b
00000100: d1dc 973e adb5 a83d 3f18 113e 135f a33e
00000110: d5f1 1f3c 3484 403e 1bb9 1a3e 14c1 2c3e
00000120: 3694 4bbd 565b c93e 9b47 85bc 818b 0b3e
00000130: 2fa3 abbd 575b cb3d 1c00 e1bc bde2 cb3d
00000140: 3965 0a3e 9bfb 0c3e a4a6 503d c68f 8d3d
00000150: b437 003d 35f9 553e cad7 d7bd c1c1 83bd
00000160: 4027 09bd dc5c 83bd fb8c 00be 586e ae3c
00000170: 3bd1 c9bd e2f8 363e ccdd 8f3e 8dec 6a3e
00000180: b53c 96bd cf96 c63e 1329 41be 88f2 8cbb
00000190: 1ec9 80be 392a 09bd 8fe4 0ebc 9d89 bbbc
000001a0: 38d4 f5bc 3436 b1bc 2077 b33d 9ef9 bebd
000001b0: 3d35 473e b9ad 603e 8a04 fe3d 83bb 06be
000001c0: 46fb bd3e 5f0c 093e 755e a03e 089d 2e3e
000001d0: 7149 65bd 3e4d b23c ae7c bb3d 5ee6 2fbc
000001e0: 3514 053e fcd3 ed3e fb05 d0bb dd3e 1a3e
000001f0: b057 bebd 2373 363d be47 b4bd 347f bf3d
00000200: 8b5f 96bc 7553 35be a86a 9f3d d2fd 913c
00000210: 036a 93bd 9a2f 87bd 398a 23bd ef62 c63d
00000220: c93a 643e 8279 5a3d 5b65 993e 7e30 b03e
00000230: 07b0 4d3d 83fa 04bd c086 6abd aff4 193d
00000240: 01e4 a2bb 742c a3bd ef77 bd3c 9caa 6bbd
00000250: dc10 523d 1e79 e7bd a2ea ec3c a7f4 1abc
00000260: f7ab 293d 6c00 253e de40 32be a8e3 e2bd
00000270: 658f ec3d 018a ca3d e2e8 d43d 339b 353d
00000280: 1207 be3e 8e3d 7f3d 16f9 86be 2c9d 3abe
00000290: 91cb 98be 46f8 e1be 5a6c c03d 21eb 58be
000002a0: c74f d1bc b705 883d 1efa fabc c48b 67be
000002b0: 1abb 283d a675 3bbe ae77 4bbe 3fe6 883d
000002c0: 0ad9 e2bc 0719 f4bd ab82 91bc 725f d4bc
000002d0: 77f0 d3bd 3236 06bd f097 babd 6b2b d4bc
000002e0: 0ef1 c23d 644d 8f3d d6da 1a3e f672 fa3d
000002f0: c630 fc3d ec28 d3b6 9763 10bd ff07 a6bc
00000300: 3a2e 7dbd 07c4 fabd e25c a7bb 8348 49bd
00000310: 733b 913e c5da 8cbc 15a0 8cbc 0103 bcbc
00000320: 5ba3 d2bd a5f3 22bc b8ac db3d dd72 07be
00000330: b4bf ba3c 9f99 0ebe 7436 09bc e860 38be
00000340: 253a dfbd 288d 09be 5886 aebd edea af3d
00000350: 82f8 753d c4d3 dcbd fd74 8f3e a954 053e
00000360: 50a6 74bd 13ec 7bbe 2fbc a8bc c481 b2be
00000370: 014a 43be 9d10 40be e20f 033e 6377 053b
00000380: 5683 59bd e0dd 85bd c5aa d0bd e197 c2bc
00000390: 2a2e 213e 76df c73d eabf d9bc 68e3 933e
000003a0: 3c2a c83e d368 42bc f3a7 cb3d ba2b 16be
000003b0: d136 25be c15a 46be 9230 1cbe 9042 07be
000003c0: a478 553d d820 ba3d 3015 d33c 15db 1dbb
000003d0: cb54 50bd 8cea 9bbc 729c fabb 9fbf 1f3e
000003e0: b81a 52bc 6b73 d2bc a488 203e a703 093d
000003f0: ebbb b3bc bd6a 84bd fa92 34be 3f64 4ebe

decoder.3.bias f4 [16]
0.08039206 -0.1079268 0.115518585 -0.07166433 0.02013201 0.022467155 -0.06863544 -0.09553208
0.0781038 -0.13657033 0.0017352693 0.21554177 0.05299512 -0.023120329 -0.10644491 0.03511321
00000000: 98a4 a43d ba08 ddbd 0295 ec3d c0c4 92bd
00000010: e3eb a43c 0a0d b83c bd90 8cbd 53a6 c3bd
00000020: e3f4 9f3d 18d9 0bbe fa71 e33a fbb6 5c3e
00000030: 6911 593d d866 bdbc caff d9bd dfd2 0f3d

decoder.5.weight f4 [16, 8, 3, 3]
-0.0062247477 -0.014981799 0.054565758 0.016365035 2.3201932e-38 -0.09485191 -0.08737146 0.03785985
-0.019206703 -0.13384342 -0.04131547 -0.17746162 0.050290383 -0.054156505 0.19823766 0.1371462
-0.027286207 -0.048671976 -0.08445725 -0.11353904 -0.010418491 -0.10844897 -0.16896029 -0.08947969
-0.004121785 -0.13394913 -0.10937148 -0.044742268 -0.049622606 -0.0493388 0.037125714 -0.0048036613
0.06115706 0.08035423 -0.09999481 -0.15150566 0.065260276 -0.11028029 0.3168576 -0.038277842
0.048415806 0.29562777 -0.1780769 0.08873616 0.3102383 -0.07202659 -0.0018896819 0.006048796
0.024747163 -0.10471952 0.046517737 -0.093763016 -0.0065463632 -0.05262645 -0.062005922 -0.04060761
0.18626001 -0.028258001 0.16605778 0.5014617 0.0099313315 0.006262327 0.5114954 0.059851088
-0.080836646 0.14044073 0.12077413 0.12378827 -0.19065116 0.05706346 -0.19794616 0.066189244
0.03146275 -0.037421398 -0.024744611 -0.13145107 -4.0112454e-38 -0.10582458 -0.09066929 0.039143935
-0.008514839 0.11983359 0.006766488 0.077218145 0.11930833 0.0125583 0.14263031 0.15965919
-0.22774525 -0.040022593 -0.12215345 -0.122745454 -0.020390972 -0.3378986 -0.095603265 -0.057299204
-0.1276695 -0.020221457 -0.024393866 -0.110420525 -0.14757778 0.15263367 -0.00028815598 -0.030749984
-0.08019477 0.18450557 0.09168351 0.030441167 0.041826896 0.13455985 0.117091276 0.05741751
0.18934707 0.03177714 -0.004456702 0.10278636 -0.0061517647 -0.07135774 -0.021565719 -0.08001127
-0.038059093 -0.16173643 -0.016377559 -0.031800877 -0.058368172 0.049486186 0.14872944 0.2064941
0.056091234 0.20811453 0.34276566 0.15199392 0.066601515 0.12537512 0.04387705 0.07468896
-0.14951493 0.0729521 0.046136193 -0.16704594 -0.10433175 -0.0675576 0.06252068 -0.11462422
-0.038374722 -0.07713929 -0.07506318 -0.1013186 5.6345544e-38 -0.0020413003 0.029356677 0.005942585
-0.043927632 0.07988837 0.035006247 0.035794176 0.08440143 0.23796102 0.3033342 0.042325903
0.10778826 0.32568428 -0.14881302 -0.1221722 0.009850298 0.007134926 -0.20487708 0.19341245
-0.085505046 -0.21981266 -0.0481191 0.064751975 -0.106868885 0.064780004 0.0027213574 -0.14440523
-0.066110305 -0.14968204 0.10486893 0.017607063 -0.19289963 0.087561674 0.19903769 -0.14094172
0.24560413 0.26676446 0.09164167 0.28996658 0.14448275 -0.11556072 0.0057509905 -0.021919852
-0.044245344 -0.12520757 0.048171636 -0.0944928 -0.06865255 -0.040204138 -0.029384088 0.09764819
0.20583244 0.012577224 0.30443433 0.3905448 0.10668204 0.3700276 0.3410171 -0.2345213
0.08942978 0.022465762 0.08545338 0.35325027 -0.09692289 -0.0026539136 -0.18587145 0.14880651
-0.05290698 -0.057313025 0.02992283 -0.0855263 -4.704452e-38 -0.05358511 -0.0288633 0.0045713466
-0.08256841 -0.13890895 -0.11475875 -0.20043407 -0.12712108 -0.06612791 0.4006041 -0.024504732
0.055213563 0.20480804 -0.09353512 -0.04874442 -0.210704 -0.03869097 -0.03139246 0.032065596
-0.10259834 -0.14463748 -0.026722224 -0.13173777 -0.07518368 -0.019400122 -0.05088331 -0.080298364
-0.12677607 -0.1951563 -0.004385953 -0.18627095 -0.010830767 -0.069573775 0.19188355 0.0122206835
00000000: f8f8 cbbb 3876 75bc 5880 5f3d f70f 863c
00000010: 8ca5 fc00 b841 c2bd cfef b2bd ee12 1b3d
00000020: 6057 9dbc 400e 09be 693a 29bd 80b8 35be
00000030: 4afd 4d3d 36d3 5dbd d0fe 4a3e 0e70 0c3e
00000040: 5387 dfbc 445c 47bd ecf7 acbd 2887 e8bd
00000050: 52b2 2abc 7e1a debd ed03 2dbe 2141 b7bd
00000060: 0a10 87bb f629 09be 28fe dfbd ab43 37bd
00000070: 1341 4bbd 7b17 4abd 2211 183d 0868 9dbb
00000080: d37f 7a3d c290 a43d 14ca ccbd 4d24 1bbe
00000090: 2ea7 853d a2da e1bd 293b a23e 3ac9 1cbd
000000a0: a74f 463d 865c 973e ca59 36be 4ebb b53d
000000b0: 8ed7 9e3e ad82 93bd 34af f7ba fb34 c63b
000000c0: 90ba ca3c 3077 d6bd 6289 3e3d d306 c0bd
000000d0: e082 d6bb d58e 57bd ecf9 7dbd 2a54 26bd
000000e0: f2ba 3e3e 537d e7bc 0d0b 2a3e cb5f 003f
000000f0: 06b7 223c 3534 cd3b 5df1 023f 6a26 753d
00000100: af8d a5bd b2cf 0f3e 6d58 f73d b484 fd3d
00000110: 0f3a 43be 60bb 693d 66b2 4abe 3a8e 873d
00000120: 16df 003d 2e47 19bd 36b5 cabc 1c9b 06be
00000130: 9a64 5a81 8fba d8bd d2b0 b9bd 6455 203d
00000140: d381 0bbc 506b f53d 6ab9 dd3b 8c24 9e3d
00000150: ed57 f43d 54c1 4d3c ae0d 123e b37d 233e
00000160: 0d36 69be bbee 23bd 972b fabd f861 fbbd
00000170: f80a a7bc 0c01 adbe a5cb c3bd 92b2 6abd
00000180: cbbb 02be 78a7 a5bc a5d5 c7bc 2824 e2bd
00000190: a11e 17be 004c 1c3e a413 97b9 64e7 fbbc
000001a0: 283d a4bd 07ef 3c3e 90c4 bb3d c15f f93c
000001b0: ae52 2b3d 0fca 093e 8dcd ef3d 9f2e 6b3d
000001c0: 33e4 413e bf28 023d 8709 92bb a881 d23d
000001d0: be94 c9bb 0224 92bd 97aa b0bc f3dc a3bd
000001e0: dae3 1bbd 3c9e 25be 3b2a 86bc a341 02bd
000001f0: 7713 6fbd 07b2 4a3d 884c 183e 3073 533e
00000200: ecbf 653d fa1b 553e fb7e af3e 4ba4 1b3e
00000210: 6066 883d 5662 003e 6cb8 333d 87f6 983d
00000220: 711a 19be e967 953d 4ef9 3c3d 170e 2bbe
00000230: e2ab d5bd a45b 8abd d80a 803d 1ac0 eabd
00000240: d02e 1dbd 34fb 9dbd b9ba 99bd 2080 cfbd
00000250: 1d63 9901 56c7 05bb 6a7d f03c 04ba c23b
00000260: 76ed 33bd 849c a33d b662 0f3d ea9c 123d
00000270: a8da ac3d 0eac 733e 9f4e 9b3e ed5d 2d3d
00000280: 17c0 dc3d 17c0 a63e 7162 18be 6b35 fabd
00000290: 2563 213c 19cc e93b 4ccb 51be ea0d 463e
000002a0: 451d afbd 9216 61be 8918 45bd af9c 843d
000002b0: 13de dabd 61ab 843d cd58 323b f7de 13be
000002c0: d764 87bd 4046 19be 86c5 d63d b03c 903c
000002d0: 7b87 45be 8953 b33d 89d0 4b3e 0753 10be
000002e0: a67f 7b3e 5a95 883e a1ae bb3d 8076 943e
000002f0: 49f3 133e 19ab ecbd ce72 bc3b 4391 b3bc
00000300: 9b3a 35bd 6a36 00be 9f4f 453d 7185 c1bd
00000310: b599 8cbd 18ad 24bd e6b6 f0bc c6fb c73d
00000320: bdc5 523e b310 4e3c d1de 9b3e 7df5 c73e
00000330: 1d7c da3d 4274 bd3e cb99 ae3e 5a26 70be
00000340: f626 b73d 1e0a b83c 2f02 af3d 38dd b43e
00000350: 827f c6bd 48ed 2dbb 1655 3ebe bc60 183e
00000360: fdb4 58bd 10c1 6abd b920 f53c 6a28 afbd
00000370: 3f11 8081 0f7c 5bbd ba72 ecbc 3ccb 953b
00000380: a019 a9bd 263e 0ebe a306 ebbd 973e 4dbe
00000390: 072c 02be 126e 87bd fb1b cd3e 26be c8bc
000003a0: 9e27 623d 33b9 513e 578f bfbd 3ba8 47bd
000003b0: cac2 57be 6c7a 1ebd 6195 00bd 3757 033d
000003c0: 141f d2bd d91b 14be 91e8 dabc 44e6 06be
000003d0: e7f9 99bd 01ed 9ebc 056b 50bd 7873 a4bd
000003e0: 96d1 01be 0ed7 47be 0ab8 8fbb d0bd 3ebe
000003f0: 8873 31bc b27c 8ebd 1f7d 443e 4339 483c

decoder.5.bias f4 [8]
-0.14956422 -0.1879576 0.33214867 -0.0039796745 -0.32789502 -0.2331276 -0.17871465 0.16353542
00000000: 5d27 19be f577 40be 640f aa3e ee67 82bb
00000010: dbe1 a7be 00b9 6ebe f900 37be d475 273e

decoder.7.weight f4 [8, 1, 3, 3]
0.26730433 0.14830282 0.2697565 0.06925561 -0.21953537 -0.16432236 0.0511216 -0.14135295
0.36683235 0.18928248 0.31806242 0.25056624 0.25067213 0.33205095 0.49117932 0.14791273
0.15598878 0.131113 -0.030505644 -0.16036248 -0.12592226 0.37580496 0.43853974 0.0695458
-0.0735641 -0.26632494 -0.3406523 -0.16023903 -0.094891705 -0.19430012 -0.32313406 -0.075499676
-0.15720339 0.29142234 0.54511625 0.16401769 0.19464159 0.140266 0.25396177 0.2876379
0.10516777 0.30551848 0.22204709 0.35347113 0.3840055 -0.09415124 0.23444037 -0.057175543
0.15315117 -0.0130024385 -0.0769624 0.16416283 0.23524992 0.099754326 0.054103497 0.21333723
0.011991741 0.17314063 0.6134833 0.14269902 0.005789594 0.17022353 -0.0014735595 -0.18118335
-0.0042888103 0.14166053 -0.24044994 0.1626225 0.59053874 -0.13274316 0.21629773 0.40732795
00000000: 1ddc 883e b2dc 173e 861d 8a3e e3d5 8d3d
00000010: e1cd 60be 1f44 28be e264 513d d4be 10be
00000020: 73d1 bb3e 44d3 413e 14d9 a23e 384a 803e
00000030: 1958 803e 9502 aa3e db7b fb3e 6f76 173e
00000040: 86bb 1f3e 7c42 063e f9e6 f9bc 1036 24be
00000050: c4f1 00be 8269 c03e 4888 e03e 076e 8e3d
00000060: c6a8 96bd be5b 88be fa69 aebe b315 24be
00000070: 9556 c2bd 9cf6 46be d471 a5be 939f 9abd
00000080: edf9 20be 4f35 953e bd8c 0b3f 41f4 273e
00000090: 2050 473e e4a1 0f3e 4707 823e 4645 933e
000000a0: 3362 d73d eb6c 9c3e 5060 633e 2bfa b43e
000000b0: 5e9c c43e 5ed2 c0bd 2311 703e e730 6abd
000000c0: a9d3 1c3e 2e08 55bc 769e 9dbd 4d1a 283e
000000d0: 5be5 703e ff4b cc3d a19b 5d3d 1375 5a3e
000000e0: 0279 443c c74b 313e 3e0d 1d3f b11f 123e
000000f0: a2b6 bd3b 144f 2e3e 7424 c1ba 2188 39be
00000100: 2689 8cbb 750f 113e 8238 76be 8386 263e
00000110: 8c2d 173f d3ed 07be 277d 5d3e 4a8d d03e
