autoencoder_model.pth (torch, 95854 bytes, 15 tensors)

encoder.0.weight f4 [8, 1, 3, 3]
0	0x3e49ed7b	0.19719498
1	0xbe3c684e	-0.18399164
2	0xbc32977a	-0.010900373
3	0xbed61497	-0.41812584
4	0x3e7720b8	0.24133575
5	0xbe821136	-0.25403756
6	0xbe16c1fc	-0.14722437
7	0xbc8de882	-0.017322782
8	0x3e926988	0.2859614
9	0xbee656d0	-0.44988108
10	0x3c2df855	0.010618289
11	0x3e2986a1	0.16555263
12	0x3da4968f	0.08036529
13	0x3eb112b6	0.34584588
14	0xbe13f153	-0.14447527
15	0x3e01d80f	0.12680076
16	0xbed1229f	-0.40846726
17	0x3dbfa15e	0.0935695
18	0x3e5c1a03	0.21494298
19	0x3e217e64	0.1577087
20	0xbe901100	-0.2813797
21	0xbdea833e	-0.11450814
22	0x3e502ab7	0.20328794
23	0x3e5dad8a	0.21648231
24	0xbd9c4750	-0.07630789
25	0x3dc5d566	0.09659843
26	0xbe7dff8b	-0.24804513
27	0x3eb99a53	0.36250553
28	0xbeefb598	-0.46818233
29	0x3e26bc16	0.16282687
30	0xbe71adaf	-0.23601411
31	0x3e1450c1	0.1448393
32	0x3e86e1c8	0.26344132
33	0x3e4c6d59	0.19963588
34	0xbd3b7f8c	-0.045775935
35	0xbe70781a	-0.23483315
36	0x3da55915	0.08073632
37	0x3ea34a13	0.31892452
38	0x3e2df4ad	0.16987868
39	0xbeaa0dff	-0.33213803
40	0xbe30e1df	-0.17273663
41	0x3b7741f9	0.0037728532
42	0xbe10e5ef	-0.14150213
43	0xbe75bcb5	-0.23997767
44	0x3cbfdec3	0.02342165
45	0x3d6d5ce3	0.05794991
46	0x3e1d7477	0.15376459
47	0xbea12bce	-0.31478733
48	0x3e0503d3	0.1298974
49	0x3c2668be	0.010156808
50	0x3e993b0c	0.29927862
51	0xbe26ac3e	-0.16276643
52	0xbee6a8e1	-0.4505072
53	0x3c8ca55e	0.017168697
54	0x3d937e50	0.072018266
55	0xbeff308d	-0.4984173
56	0xbed0cddb	-0.40782055
57	0x3e22b2f6	0.1588858
58	0x3dc131af	0.094333045
59	0x3e7d81b4	0.24756509
60	0x3e80e412	0.25174004
61	0xbd7086e1	-0.05872238
62	0x3e0cb41e	0.13740584
63	0xbce53f33	-0.027984237
64	0x3ddf6b1c	0.10909101
65	0xbe8d1c81	-0.2756081
66	0x3e630396	0.22169337
67	0x3df8ec49	0.12154443
68	0x3e3f6c59	0.18693675
69	0xbe22e1f7	-0.15906511
70	0x3d797ca1	0.06090987
71	0xbc16be7c	-0.009200688

encoder.0.bias f4 [8]
0	0x3e84ade1	0.2591391
1	0x3e0faf4c	0.14031714
2	0x3d463d56	0.04839834
3	0xbe3294d3	-0.17439584
4	0x3e8635d8	0.26212955
5	0x3e498c85	0.1968251
6	0xbd5a4f91	-0.053298537
7	0x3e403c8c	0.18773097

encoder.3.weight f4 [16, 8, 3, 3]
0	0xbd2b5e63	-0.04183806
1	0xbe844fe7	-0.2584221
2	0xbce8ce4d	-0.028418684
3	0x3dba509a	0.09097405
4	0x3cccc6b1	0.024997087
5	0x3b7a72b4	0.003821534
6	0xbe5a3ff1	-0.21313454
7	0xbd151a5a	-0.036402084
8	0xbe2a7878	-0.16647518
9	0x3c3c26e2	0.01148388
10	0x3d810e37	0.063015394
11	0xbe25ec20	-0.16203356
12	0x3db1bd20	0.08678651
13	0x3d089035	0.03334065
14	0xbcdee0c7	-0.027206792
15	0x3adec974	0.0016997294
16	0x3d5201c3	0.05127121
17	0x3d87db5c	0.06633636
18	0x3d2624c2	0.0405624
19	0xbd828e8b	-0.06374844
20	0xbd08581f	-0.033287164
21	0x3de02ae6	0.10945682
22	0x3dc9c466	0.09851913
23	0x3dc49e62	0.096005216
24	0x3de80446	0.1132894
25	0x3cad8fd8	0.021186754
26	0x3dcf6ea7	0.10128527
27	0x3e8dba02	0.27680975
28	0x3d1b72b1	0.037951175
29	0xbd511fb9	-0.051055644
30	0xbd189389	-0.037250075
31	0xbcbdd072	-0.023170684
32	0x3dfa92f8	0.12235063
33	0xbe1b0dcd	-0.15141983
34	0x3b1e4598	0.0024150368
35	0x3da4b772	0.08042802
36	0xbe48635d	-0.19569154
37	0xbf22d728	-0.6360955
38	0xbf290bf5	-0.6603387
39	0xbe243fbc	-0.16039938
40	0xbe252de2	-0.16130784
41	0xbe768dfd	-0.24077602
42	0xbe5a6ae7	-0.21329843
43	0xbe6017e3	-0.21884112
44	0xbe615e35	-0.22008593
45	0xbe4c40f8	-0.19946659
46	0xbdbcdbd8	-0.09221619
47	0xbe1c47bd	-0.15261741
48	0xbe845d11	-0.25852254
49	0xbd4465fb	-0.04794882
50	0xbe581cff	-0.21104811
51	0xbc8af4d6	-0.01696245
52	0x3e02f757	0.12789665
53	0x3cf288f2	0.029606316
54	0xbd1bccb3	-0.038037013
55	0xbe3f20e9	-0.18664898
56	0xbe3d4db1	-0.18486668
57	0x3e201975	0.15634711
58	0x3dafbff4	0.08581534
59	0x3e2b3fc3	0.16723542
60	0xbe912d4e	-0.28354877
61	0xbe22fa27	-0.15915738
62	0xbd983d41	-0.07433558
63	0x3db63b0b	0.0889798
64	0xbda0e832	-0.07856788
65	0xbc83dc56	-0.016096275
66	0x3dac66cb	0.08418044
67	0x3e114b5d	0.14188905
68	0x3dcf4076	0.10119717
69	0x3c199832	0.009374665
70	0x3dd502c2	0.10400917
71	0x3dcc5240	0.099766254
72	0x3e665a44	0.22495371
73	0x3e80f8cf	0.25189826
74	0x3d922ea9	0.07137806
75	0x3e9f3c38	0.3110063
76	0x3ecb696d	0.3972887
77	0x3e4e6d38	0.20158851
78	0x3e56a3e8	0.20960963
79	0x3d8b7f1a	0.06811352
80	0x3d887dc2	0.066646114
81	0x3eb12143	0.3459569
82	0x3e9da151	0.30787137
83	0x3dd28a94	0.10280338
84	0x3dc7b994	0.09752193
85	0x3ee0524a	0.43812782
86	0x3ddf544c	0.1090475
87	0xbd855a2e	-0.06511341
88	0x3e325a6c	0.17417306
89	0x3d98121c	0.07425329
90	0x3dbf5dae	0.0934404
91	0x3de51aa8	0.11186725
92	0xbc89c56d	-0.016817773
93	0x3d972b12	0.07381262
94	0x3c83b243	0.016076213
95	0xbdc63159	-0.09677381
96	0xb8cfbf94	-9.9062134e-05
97	0x3bca8220	0.006180063
98	0x3d033c7a	0.032040097
99	0x3f08b1c7	0.53396267
100	0x3ecf1a49	0.4044974
101	0x3d1e0fb9	0.038589213
102	0x3d54a463	0.051914584
103	0x3f037885	0.51355773
104	0x3e3801d4	0.17969447
105	0x3d3916e8	0.04518786
106	0x3e4d6884	0.20059401
107	0x3e85dfe4	0.26147377
108	0x3f12e3b3	0.5737869
109	0x3f3e5e61	0.7436276
110	0x3f1b224e	0.6059922
111	0x3e7ef2e8	0.24897349
112	0x3ea91486	0.3302347
113	0x3e981867	0.29706118
114	0xbd17bae5	-0.03704347
115	0x3e01c502	0.12672809
116	0x3df9a83a	0.1219029
117	0x3ec93baa	0.39303333
118	0x3f0de1a7	0.55422443
119	0x3ed4378e	0.41448635
120	0x3ead4504	0.33841717
121	0x3e5208f9	0.20511235
122	0x3dd8c9ab	0.1058534
123	0x3df5e635	0.12006799
124	0x3e79317c	0.24335283
125	0x3e89b965	0.26899257
126	0x3e9d310e	0.30701488
127	0x3db31be7	0.08745556
128	0xbd013105	-0.03154089
129	0x3e77162c	0.24129552
130	0x3e973a38	0.29536605
131	0x3e772f9d	0.24139257
132	0x3e407dc0	0.1879797
133	0x3e442d07	0.19157802
134	0xbbc39049	-0.005968128
135	0x3dff3ae3	0.124624036
136	0xbd3b99c1	-0.045800928
137	0x3b7da387	0.0038702206
138	0x3e2cef17	0.1688808
139	0xbe0262e4	-0.12733036
140	0x3dba6d4d	0.09102879
141	0xbd9dda20	-0.0770762
142	0xbd5e2094	-0.054230288
143	0x3caa4c14	0.02078823
144	0x3d8c9e03	0.06866076
145	0xbe98d62b	-0.29850897
146	0xbe615c44	-0.22007853
147	0x3e2cea96	0.16886362
148	0xbe0581c0	-0.13037777
149	0xbd24f469	-0.04027215
150	0xbdc5c352	-0.09656395
151	0xbe0b3c7c	-0.13597292
152	0xbeb5cc40	-0.35507393
153	0x3d364728	0.044501454
154	0x3d434edb	0.047682624
155	0xbdbce2e8	-0.092229664
156	0x3dbf97ab	0.093551
157	0xbe942d01	-0.28940585
158	0xbea7a916	-0.3274619
159	0x3e22f8d9	0.1591524
160	0xbe9aa62b	-0.302049
161	0x3c566c5d	0.013087359
162	0x3da093e7	0.0784071
163	0xbd1b8c11	-0.037975375
164	0x3e282c51	0.16423155
165	0x3e24f552	0.16109207
166	0x3c7205c1	0.01477188
167	0x3a95f543	0.0011440892
168	0x3dd37eb8	0.10326904
169	0xbd3bdbca	-0.045863904
170	0x3dccde76	0.100033686
171	0x3e92207e	0.28540415
172	0xbcc820b0	-0.02442965
173	0xbe85c470	-0.26126432
174	0x3dc75f7d	0.0973501
175	0xbe16dac9	-0.14731897
176	0xbd8bb31d	-0.068212725
177	0xbdf35883	-0.11882117
178	0xbe3cf5a2	-0.18453076
179	0xbe36c7c6	-0.17849645
180	0xbb111103	-0.0022135384
181	0xbf0305bc	-0.51180625
182	0xbf5c3cde	-0.86030376
183	0xbe0502cc	-0.12989348
184	0xbf211f39	-0.62938267
185	0xbf0a282c	-0.5396755
186	0xbe855afa	-0.26045972
187	0xbec357c9	-0.38152912
188	0xbee9fa84	-0.4569894
189	0xbdfc0a18	-0.12306613
190	0xbe1b772a	-0.15182176
191	0xbe008177	-0.12549387
192	0xbe49e07e	-0.19714543
193	0xbe3b17a6	-0.1827074
194	0xbebc900a	-0.36828643
195	0x3d19cd5e	0.03754937
196	0xbdd90bd6	-0.10597961
197	0xbcf286b9	-0.029605256
198	0x3d2d1e0d	0.042264987
199	0xbd806ec7	-0.06271129
200	0xbd4cc2c4	-0.04999043
201	0xbe934206	-0.2876131
202	0xbe2f3f99	-0.17114104
203	0xbea89dcc	-0.3293289
204	0xbe607c26	-0.21922359
205	0x3e0d2fe3	0.13787799
206	0xbe298e04	-0.16558081
207	0x3e4c2c0a	0.19938675
208	0x3d634593	0.055486273
209	0x3c8afdb2	0.016966674
210	0x3cdf3786	0.027248155
211	0x3dfef0eb	0.12448295
212	0x3e250506	0.16115198
213	0x3da2e778	0.079543054
214	0x3e1800f9	0.14844121
215	0x3e38da01	0.18051912
216	0xbd79edc3	-0.061017763
217	0x3df441a4	0.119265825
218	0x3c6d1535	0.014470388
219	0x3d6521c7	0.055940416
220	0xbe35e475	-0.1776293
221	0xbe021e45	-0.1270686
222	0xbe366807	-0.17813121
223	0x3dc995bd	0.098430134
224	0x3d869bd0	0.065726876
225	0xbcb868d8	-0.02251093
226	0xbd53cfa6	-0.0517117
227	0x3cfe6dc7	0.031058205
228	0x3e250cfe	0.16118237
229	0x3dfb3a8b	0.122670256
230	0xbc89cef3	-0.016822314
231	0x3c44c57a	0.012009973
232	0xbe37d534	-0.17952424
233	0xbdb41793	-0.08793559
234	0x3e013be8	0.12620509
235	0x3e013427	0.12617551
236	0x3d9faac8	0.07796246
237	0x3d72e408	0.0592995
238	0x3d5f642e	0.0545389
239	0x3df18abd	0.1179404
240	0xbd91f3b7	-0.07126563
241	0x3dfa1b20	0.12212205
242	0xbdd3993a	-0.1033196
243	0x3e33081e	0.17483565
244	0x3e845a04	0.25849926
245	0x3da3b9de	0.07994436
246	0x3ebda1c1	0.3703747
247	0x3e3e0736	0.18557438
248	0x3be279a9	0.0069114757
249	0xbe634440	-0.22194004
250	0x3e169bfc	0.14707941
251	0xbd29197c	-0.04128407
252	0xbe3d3406	-0.18476877
253	0xbeb44a4a	-0.35212928
254	0xbec7d818	-0.39032054
255	0xbc108ced	-0.008822662

encoder.3.bias f4 [16]
0	0x3d6e909a	0.05824337
1	0xbde17113	-0.11007895
2	0x3dd57fa1	0.10424734
3	0x3dd0e3fe	0.10199736
4	0x3c41418e	0.011795415
5	0x3e6ea299	0.23304214
6	0x3e6ab89f	0.2292199
7	0xbca75853	-0.020427858
8	0xbc7f855b	-0.015595759
9	0xbe1c23ce	-0.15248033
10	0xbc3fe7ac	-0.01171295
11	0x3d8783a1	0.06616903
12	0xbd93efaa	-0.07223447
13	0x3ba05e16	0.0048940284
14	0x3dfbb021	0.12289453
15	0xbda45d00	-0.08025551

encoder.6.weight f4 [32, 16, 3, 3]
0	0x3da72a98	0.08162421
1	0x3da26194	0.07928768
2	0x3e29db14	0.16587478
3	0xbe10cc15	-0.14140351
4	0x3cc0b4f0	0.023523778
5	0x3c95af6d	0.018272126
6	0xbe1a2bdf	-0.15055798
7	0xbc93ddd2	-0.018050108
8	0x3d0eabe2	0.03483189
9	0x3e123ba6	0.14280567
10	0x3db3a220	0.08771157
11	0x3d5be3e1	0.05368412
12	0xbdea8819	-0.1145174
13	0xbe4c2543	-0.19936089
14	0xbeaddf97	-0.33959648
15	0x3e1a1075	0.1504534
16	0x3d2f442d	0.042789627
17	0xbe3ec7cf	-0.18630908
18	0xbe57999c	-0.21054691
19	0x3d051a0a	0.032495536
20	0x3e3546ec	0.17702836
21	0xbdbcb6c0	-0.09214544
22	0x3d4a97aa	0.049461044
23	0x3d965095	0.073395886
24	0xbc099200	-0.0083966255
25	0x3c0ebcc2	0.008711996
26	0x3d177aab	0.03698222
27	0xbe286c8a	-0.16447654
28	0xba06b083	-0.00051379966
29	0x3d3bf759	0.045890186
30	0x3cfa3a55	0.030545393
31	0x3d470f95	0.048598845
32	0xbb88c4e2	-0.004173861
33	0xbe4ce7eb	-0.20010345
34	0xbc681187	-0.014164335
35	0x3d82d88d	0.0638896
36	0x3e61651f	0.22011231
37	0xbe1f266c	-0.15542
38	0xbb8c3878	-0.0042791925
39	0xbc45b6b2	-0.012067484
40	0xbdbaf039	-0.0912785
41	0xbe6d54de	-0.23176906
42	0x3e2d4795	0.16921838
43	0xbd7d49f6	-0.061838113
44	0xbe170163	-0.14746623
45	0xbd6a3d66	-0.05718746
46	0xbd87ff69	-0.066405125
47	0xbdb16b01	-0.086629875
48	0xbddf0465	-0.1088951
49	0x3e15dea1	0.14635707
50	0xbd1f097a	-0.038827397
51	0xbd5e55f1	-0.05428118
52	0xbd81fe84	-0.06347373
53	0x3dd2da2d	0.1029552
54	0xbe5fa8b2	-0.21841696
55	0x3d7d195c	0.061791763
56	0x3dc7deef	0.09759318
57	0xbdad0f66	-0.08450203
58	0x3e27be30	0.16381145
59	0x3d9c3aa5	0.07628373
60	0xbe14c027	-0.14526425
61	0xbe33d220	-0.17560625
62	0xbca0433b	-0.019563308
63	0x3cde9f77	0.027175648
64	0xbc9fec68	-0.019521907
65	0x3d5e6062	0.054291137
66	0x3cbb4507	0.022860063
67	0x3cb915fc	0.02259349
68	0x3ce84d21	0.02835709
69	0x3cd6b95c	0.026211433
70	0x3bec059b	0.0072028167
71	0xbcd93776	-0.026515704
72	0x806f9771	-1.0248067e-38
73	0x8062b7d2	-9.065821e-39
74	0x805752e8	-8.01943e-39
75	0x17ea6545	1.514746e-24
76	0x21c79a0e	1.3525542e-18
77	0x229606b0	4.0664662e-18
78	0x25f6a619	4.278675e-16
79	0x2980ea90	5.725032e-14
80	0x2789d7b3	3.8259e-15
81	0x3e627781	0.221159
82	0x3d87a5f8	0.06623453
83	0x3ce90da5	0.028448889
84	0x3ca2f766	0.01989336
85	0xbe8ff5d4	-0.2811724
86	0xbe95c10c	-0.29248846
87	0x3c0639e7	0.008192516
88	0x3da35846	0.07975821
89	0xbdce2409	-0.10065467
90	0x3e44919f	0.19196175
91	0x3e2dfd31	0.16991116
92	0xbddb8205	-0.10718159
93	0x3dfa9bc4	0.12236741
94	0xbe212c7c	-0.15739626
95	0xbe100034	-0.14062577
96	0xbdfd5211	-0.123691685
97	0xbe038ad5	-0.12845929
98	0xbe1762f1	-0.14783837
99	0xbdd3e08b	-0.103455625
100	0x3cd60e9a	0.02613001
101	0x3e1c8bbd	0.15287681
102	0x3d829394	0.063758045
103	0x3cd87489	0.026422756
104	0x3df0efa4	0.11764458
105	0x3cbcec8f	0.023062019
106	0x3d88b911	0.066759236
107	0x3e053f9a	0.13012543
108	0x3e53473c	0.20632643
109	0x3e7a047d	0.24415775
110	0x3d9953ef	0.07486712
111	0x3e829198	0.25501704
112	0x3d577399	0.052600477
113	0xbd0be881	-0.03415728
114	0x3da030ac	0.078217834
115	0x3cec9c6b	0.02888318
116	0x3da4cd60	0.08046985
117	0x2fe81ee0	4.2222492e-10
118	0x304802da	7.276363e-10
119	0x30573348	7.828942e-10
120	0x2ffdd572	4.6172094e-10
121	0x303785e9	6.676531e-10
122	0x300ae4cf	5.0529264e-10
123	0x30a18b64	1.1753909e-09
124	0x308a08c1	1.004331e-09
125	0x31923cac	4.256057e-09
126	0xbc2c30da	-0.010509694
127	0x3d1043cb	0.035220902
128	0x3ce265cc	0.027636431
129	0xbdd346ac	-0.10316214
130	0x3d54daa7	0.051966336
131	0xbcffe9d6	-0.031239431
132	0xbdf792c7	-0.120885424
133	0x3da90adc	0.082540244
134	0x3c7458b6	0.014913728
135	0x3d9133da	0.07089968
136	0x3d38126f	0.044939455
137	0x3cd5091c	0.02600532
138	0x3e1028a2	0.14078
139	0xbe6b9ba6	-0.23008594
140	0xbdc10e2a	-0.0942653
141	0x3c93ae42	0.018027429
142	0xbe002f09	-0.12517942
143	0xbdbdacd2	-0.092614785
144	0x39d88e0e	0.0004130457
145	0xbcf90f43	-0.030402785
146	0xbcb41d0b	-0.021986505
147	0x3de8daad	0.11369834
148	0x3da5f2b5	0.08102933
149	0x3ce02295	0.02736024
150	0x3dd13a65	0.10216216
151	0x3bc0c406	0.005882743
152	0x3d4c0cef	0.049817022
153	0xbe12ce15	-0.14336427
154	0xbdcc5213	-0.09976592
155	0xbde07a78	-0.10960859
156	0xbe65eb51	-0.22453047
157	0xbe34bf78	-0.17651165
158	0xbd10ff38	-0.035399646
159	0xbaa05f3c	-0.0012235413
160	0x3e174bbc	0.14774984
161	0x3e04660a	0.1292955
162	0xbc34fd4f	-0.011046722
163	0xbd3aed1b	-0.045636278
164	0x3e0b0053	0.13574342
165	0x3e411022	0.1885381
166	0xbe2ea89f	-0.17056511
167	0xbc34eb3f	-0.011042415
168	0x3c63fa60	0.0139146745
169	0xbeb844a4	-0.3598987
170	0x3c85139c	0.016244702
171	0xbc7381b3	-0.014862466
172	0xbdafdfbc	-0.08587596
173	0x3ca407d7	0.02002327
174	0x3d1140eb	0.0354623
175	0xbcbe7ed7	-0.023253841
176	0x3cc3af89	0.023887413
177	0xbde8fd56	-0.11376445
178	0x3e017fab	0.12646358
179	0x3debe5d5	0.11518446
180	0xbdc19010	-0.09451306
181	0x3e421d3e	0.18956468
182	0xbe325436	-0.17414936
183	0xbe7a2e68	-0.24431765
184	0x3e8308ef	0.25592753
185	0x3d30b35d	0.043139804
186	0xbd3a861c	-0.045538053
187	0x3eae15f6	0.3400113
188	0xbeb67255	-0.35634103
189	0xbac9c652	-0.0015394187
190	0xbc146665	-0.009057616
191	0xbe8df00e	-0.2772221
192	0xbcae0845	-0.021244178
193	0x3e11a139	0.14221658
194	0xbb4ba809	-0.0031075499
195	0x3cca097e	0.02466273
196	0x3d281f34	0.041045383
197	0xbe964501	-0.2934952
198	0xbdcf70f1	-0.10128964
199	0x3debbe28	0.11510879
200	0x3d5facef	0.05460828
201	0xbd1377d6	-0.036002956
202	0x3dbaa3a5	0.09113244
203	0xbd8d4b4e	-0.06899129
204	0xbe21cfa5	-0.15801866
205	0xbe604893	-0.21902685
206	0xbdc3e972	-0.095660105
207	0x3c20ba65	0.009810065
208	0x3c3e032f	0.011597439
209	0x3c8af420	0.016962111
210	0x3d0696df	0.032858726
211	0x3b8fa9df	0.004384264
212	0x3c903b4a	0.017606396
213	0x3c9f6db8	0.019461498
214	0x3c0c6599	0.008569145
215	0x3c674df3	0.014117706
216	0x805571fd	-7.846908e-39
217	0x00538138	7.668701e-39
218	0x8049f88a	-6.79315e-39
219	0x13e52850	5.784748e-27
220	0x1dd5c18e	5.658076e-21
221	0x19c63697	2.0494769e-23
222	0x22a868cf	4.564746e-18
223	0x2603002a	4.544998e-16
224	0x13484338	2.527669e-27
225	0xbdcf5140	-0.10122919
226	0xbb888fba	-0.004167524
227	0xbe8a9204	-0.27064526
228	0xbebb79f0	-0.36616468
229	0x3c396074	0.0113145
230	0xbe2ce2f8	-0.16883457
231	0x3dc4c821	0.09608484
232	0x3e9949f0	0.29939222
233	0xbdd6f799	-0.10496444
234	0xbd25a645	-0.04044177
235	0x3d4e8450	0.05041915
236	0xbd31585c	-0.043297157
237	0xbed1352f	-0.40860888
238	0x3de348be	0.11097859
239	0xbddf8b89	-0.10915286
240	0xbb0fe113	-0.0021954223
241	0x3f06b761	0.52623564
242	0xbd2259d8	-0.039636463
243	0x3d2eb488	0.042652637
244	0xbdf815c8	-0.121135294
245	0x3e31fb40	0.17381
246	0x3d8797d3	0.06620755
247	0xbdbb68ec	-0.09150872
248	0x3dc09ef5	0.09405319
249	0x3d7542d9	0.059878204
250	0xbda67a56	-0.081288025
251	0x3e378c12	0.17924526
252	0x3c6a6bd8	0.0143079385
253	0xbdd83796	-0.10557477
254	0x3e705e4a	0.23473468
255	0x3e98e435	0.29861608

encoder.6.bias f4 [32]
0	0x3e3e3dd5	0.18578275
1	0x3bb4522f	0.005502961
2	0x3e4f5e8b	0.20250909
3	0x3e3980e3	0.18115573
4	0xbd0d369e	-0.034475915
5	0x3ca653d1	0.020303639
6	0x3d58f677	0.052969422
7	0xb58eac87	-1.0630037e-06
8	0x3d8ad598	0.06779021
9	0x3dd5a533	0.104319
10	0x3e821a62	0.25410753
11	0x3e1dab56	0.1539739
12	0x3e0fdebd	0.14049812
13	0xbe103b90	-0.14085221
14	0xbdff5b4f	-0.124685876
15	0x3dbe247d	0.09284303
16	0x3dff8ca4	0.12477997
17	0xbea24da3	-0.31699857
18	0xbe423feb	-0.18969695
19	0x3e82af96	0.25524586
20	0x3d782bfb	0.060588818
21	0x3d1b38f4	0.03789611
22	0xbe03cf74	-0.12872106
23	0x3cefd73d	0.029277438
24	0x3e95245f	0.2912931
25	0x3e05e9a0	0.13077402
26	0xbd24503e	-0.040115587
27	0x3d4901ef	0.04907411
28	0xbc686cc7	-0.014186091
29	0x3d430721	0.04761422
30	0x3e1e0604	0.15431982
31	0x3e15e144	0.14636713

encoder.10.weight f4 [10, 512]
0	0xbc5a9c1f	-0.013342886
1	0xbe180c70	-0.14848495
2	0x3d1e0a9f	0.038584348
3	0x3e18cffe	0.14923093
4	0x3e0c71e0	0.13715315
5	0x3ef86f0a	0.48522216
6	0x3d8004ea	0.06250937
7	0x3c69eaf9	0.014277213
8	0x3db49935	0.088182844
9	0x3de906ae	0.11378227
10	0xbd23e2d1	-0.04001123
11	0x3d90f1c6	0.070773646
12	0x3c06e912	0.008234279
13	0x3d53cf04	0.051711097
14	0x3e132f98	0.14373624
15	0x3e370bd3	0.17875604
16	0x3e8db2d2	0.27675492
17	0x3e0755f3	0.13216381
18	0x3da06604	0.07831958
19	0x3e493903	0.19650654
20	0x3d9d4616	0.076793835
21	0xbde6bd11	-0.1126653
22	0x3d3a0b45	0.045420904
23	0xbbc40860	-0.0059824437
24	0x3dcba204	0.099430114
25	0x3cf607fa	0.0300331
26	0x3e4dd803	0.20101933
27	0x3e2a26a0	0.16616297
28	0xbc1d34b9	-0.00959509
29	0xbd95e564	-0.073191434
30	0xbd1b309d	-0.037888158
31	0x3e084c8f	0.13310455
32	0x3d858de4	0.06521204
33	0xbee167fc	-0.44024646
34	0xbe0e351c	-0.13887447
35	0x3d773596	0.060353838
36	0xbd8b85d2	-0.068126336
37	0x3ec7cacb	0.39021906
38	0x3c9134ea	0.017725427
39	0xbe3f5df5	-0.18688186
40	0xbd9cb428	-0.076515496
41	0xbdec4b85	-0.11537842
42	0x3d7d396a	0.061822332
43	0x3e29de42	0.16588691
44	0x3ea45ecf	0.32103583
45	0x3e4e3f40	0.20141315
46	0x3e81e467	0.2536957
47	0x3eb7e174	0.35914195
48	0x3e23c06f	0.15991376
49	0x3d83ba58	0.064320266
50	0x3d09342f	0.03349703
51	0x3e2340ee	0.15942737
52	0x3e12660b	0.14296739
53	0x3e5e6158	0.21716821
54	0x3d91c309	0.07117278
55	0xbb4345a2	-0.0029796143
56	0x38ad864d	8.274298e-05
57	0x3c5d6f8a	0.0135153625
58	0x3dc68eb7	0.096951894
59	0x3dd5781f	0.10423302
60	0x3dab6b2f	0.08370053
61	0xbc25bedf	-0.010116308
62	0x3e4b212f	0.19836877
63	0x3e5facfb	0.2184333
64	0xbca9995e	-0.020703014
65	0xbcbcba44	-0.023038037
66	0xbcb9b676	-0.022670012
67	0xbcb7ea83	-0.022450691
68	0xbca5cdac	-0.020239674
69	0xbc987ab8	-0.018613204
70	0xbc95d55a	-0.01829021
71	0xbc8c937b	-0.017160168
72	0xbc9a557d	-0.018839592
73	0xbc8daece	-0.017295267
74	0xbc917283	-0.017754799
75	0xbc8644dc	-0.016390257
76	0xbc8ed36f	-0.017434804
77	0xbc5a25fe	-0.013314722
78	0xbbf7fae3	-0.00756775
79	0xbc877ccb	-0.016538998
80	0x3ddaeb87	0.106894545
81	0xbdaa7b4a	-0.08324297
82	0x3d95c9e1	0.07313896
83	0x3e15b015	0.14617951
84	0x3dff6b37	0.124716215
85	0xbb80a253	-0.0039256006
86	0xbe3feb15	-0.1874202
87	0xb9e71a44	-0.00044079323
88	0x3d5640b6	0.052307807
89	0xbda212fe	-0.07913779
90	0xbba7f3aa	-0.0051254826
91	0x3cd2adb8	0.025717601
92	0x3da72967	0.08162194
93	0xbc3943cb	-0.011307667
94	0x3d8740dd	0.066041686
95	0x3df9362e	0.12168537
96	0xbe749fb1	-0.23889042
97	0x3e4de9c2	0.20108703
98	0xbe935a8b	-0.28780016
99	0xbe0bb5cd	-0.1364357
100	0x3ea50c89	0.32236126
101	0x3f106797	0.56408066
102	0xbd36f98d	-0.044671584
103	0x3c25d1fe	0.010120867
104	0x3ef4bab6	0.477987
105	0x3db75b6c	0.08952984
106	0xbdd87656	-0.10569446
107	0x3e05135f	0.1299567
108	0x3df6f64f	0.120586984
109	0x3e72abd2	0.23698357
110	0xbe6b01ab	-0.22949855
111	0x3d530fc6	0.051528715
112	0xac1d5317	-2.2357166e-12
113	0xa8302d3b	-9.77977e-15
114	0xa7c25e53	-5.3948083e-15
115	0xa810012b	-7.993859e-15
116	0xaf1dbaff	-1.4345501e-10
117	0xb6f56651	-7.31348e-06
118	0xb6c9df58	-6.0162674e-06
119	0xab800ed5	-9.099064e-13
120	0xb232e017	-1.0411916e-08
121	0xb8559d67	-5.092975e-05
122	0xb894943f	-7.084803e-05
123	0xb50a5021	-5.152561e-07
124	0xb48fd413	-2.679013e-07
125	0xb7ff1b5c	-3.0411109e-05
126	0xb8448cf8	-4.686133e-05
127	0xb56e50c2	-8.877943e-07
128	0x3e32e1e7	0.17468987
129	0x3e0634c1	0.13106062
130	0x3cb1e0a4	0.021713562
131	0x3de85832	0.11344947
132	0x3e2882cb	0.16456144
133	0x3d7595e5	0.059957404
134	0x3d873393	0.06601634
135	0x3d8b5ef7	0.068052225
136	0x3de448ec	0.11146721
137	0x3d1444af	0.036198314
138	0x3dfad489	0.12247569
139	0x3e0542ec	0.1301381
140	0x3d7a2bc6	0.0610769
141	0x3d3a6ab5	0.04551192
142	0x3df963bc	0.12177226
143	0x3e27d75e	0.1639075
144	0x3e2443ec	0.16041535
145	0x3dfb1460	0.122597456
146	0xbc7ea57e	-0.015542386
147	0x3db7a36a	0.08966716
148	0x3e32bc0d	0.17454548
149	0x3e630050	0.22168088
150	0xbdb74b19	-0.089498706
151	0xbd20a889	-0.039223228
152	0xbd121305	-0.03566267
153	0xbca163aa	-0.019700844
154	0x3e1509cd	0.1455452
155	0x3e36547e	0.17805669
156	0xbca605be	-0.02026641
157	0xbdce4a6a	-0.10072787
158	0x3dbacdcf	0.09121286
159	0x3e66a1de	0.22522685
160	0x3c920bb9	0.017827855
161	0xbee7afce	-0.45251316
162	0xbca4a113	-0.020096337
163	0x3e094de7	0.13408624
164	0xbe3fb699	-0.18721999
165	0xbe19a95e	-0.15006015
166	0xbf2243d6	-0.6338476
167	0xbd8d8c33	-0.069115065
168	0xbce42a7f	-0.027852295
169	0xbf177fee	-0.5917958
170	0x3c2c3417	0.010510466
171	0x3e1c186f	0.15243696
172	0x3e32b865	0.17453153
173	0xbd86d534	-0.06583634
174	0x3e7ce54b	0.24696843
175	0x3ea24842	0.31695753
176	0x3e1ba15b	0.15198271
177	0x3db011d6	0.08597152
178	0x3d769775	0.060203034
179	0x3e286736	0.16445622
180	0x3e268634	0.16262132
181	0x3e879236	0.26478738
182	0x3e0695d7	0.13143097
183	0x3cb6dbd0	0.022321612
184	0xbc0c0728	-0.008546628
185	0xbd0ff352	-0.035144158
186	0x3e06c94d	0.13162728
187	0x3d2f58d4	0.042809322
188	0x3e033498	0.12813032
189	0x3c3f26bf	0.011666953
190	0x3e2a3a24	0.16623741
191	0x3e454818	0.19265783
192	0x3e151cdd	0.14561792
193	0xbda7c8db	-0.08192607
194	0x3da939c1	0.08262969
195	0x3e5c9c0f	0.21543907
196	0xbe4813b0	-0.1953876
197	0xbf1247d5	-0.57140857
198	0xbed2dcfe	-0.4118423
199	0x3d716fb9	0.058944438
200	0xbd8c979d	-0.068648554
201	0xbf0bc70a	-0.54600585
202	0xbeb27c91	-0.34860662
203	0x3da8f76e	0.082503185
204	0x3d013ea9	0.031553898
205	0xbe85d568	-0.2613938
206	0xbe004d3d	-0.12529464
207	0x3e344a6a	0.17606512
208	0x3c1069dd	0.008814302
209	0x3e9c6aa1	0.305501
210	0xbd0ab061	-0.033859614
211	0xbdbe355b	-0.092875205
212	0x3eacd454	0.33755744
213	0x3e776d37	0.24162756
214	0xbec2f0cd	-0.3807434
215	0xbdd7c7c2	-0.10536148
216	0x3eac9813	0.33709773
217	0xbe4254f1	-0.18977715
218	0xbdaa69a5	-0.08320931
219	0xbcc47428	-0.023981169
220	0x3d4441fe	0.047914498
221	0x3ca0218d	0.019547248
222	0x3cfd64a7	0.030931784
223	0xbaf0988a	-0.0018356007
224	0x3e984b70	0.29745054
225	0x3e54cecc	0.20782012
226	0x3e904e7b	0.28184876
227	0x3e7b709b	0.24554674
228	0x3e6649bb	0.22489063
229	0xbf104339	-0.56352574
230	0xbe69b51f	-0.22822998
231	0x3e1bc136	0.15210423
232	0x3e6716d4	0.22567302
233	0x3de2e1a6	0.11078195
234	0x3ed72872	0.42023045
235	0xbd24348d	-0.04008918
236	0x3d608073	0.05481
237	0xbea8b0ce	-0.3294739
238	0xbdae9730	-0.085249305
239	0x3e04d510	0.12971902
240	0x3e022083	0.12707715
241	0x3ee66025	0.44995227
242	0xbdf848aa	-0.121232346
243	0x3d1eb55f	0.038747188
244	0x3d843af3	0.06456556
245	0x3d90041a	0.07032032
246	0xbe306a01	-0.17227937
247	0x3d43649b	0.047703367
248	0x3e59224c	0.2120449
249	0x3ed3b773	0.41350898
250	0xbe88c8c9	-0.26715687
251	0x3e058a0a	0.13040939
252	0xbed89057	-0.42297623
253	0xbdd5ee13	-0.104458
254	0xbd4e4607	-0.050359752
255	0x3e010a3b	0.12601559

encoder.10.bias f4 [10]
0	0x3e465eb2	0.19372061
1	0x3e19c465	0.15016325
2	0x3df5df69	0.12005503
3	0x3d73cc93	0.05952127
4	0xa2439126	-2.6504269e-18
5	0x00cacb99	1.8623807e-38
6	0x3de16dbd	0.11007259
7	0xbbbe8754	-0.005814472
8	0xa484daf5	-5.76168e-17
9	0x3e7320b1	0.2374294

decoder.0.weight f4 [512, 10]
0	0x3dedf5d5	0.11619154
1	0xbe779169	-0.24176563
2	0x3d7e04ad	0.062016178
3	0x3e01c393	0.12672262
4	0x80a36a0f	-1.5007233e-38
5	0x81b38ce7	-6.59564e-38
6	0x3daeff6f	0.08544814
7	0x3cc83a74	0.024441935
8	0x81af8ae6	-6.4484157e-38
9	0x3daa9587	0.08329301
10	0xbcc9b1ad	-0.024620855
11	0xbba7c007	-0.005119327
12	0xbc3832e8	-0.011242606
13	0xbe925b7f	-0.2858543
14	0x800f2da1	-1.393901e-39
15	0x8114aa20	-2.7305366e-38
16	0x3a8b2c28	0.0010618018
17	0x80660b9b	-9.371384e-39
18	0x0012095e	1.656399e-39
19	0xbdc04475	-0.09388057
20	0xbc52c5d4	-0.012864549
21	0x3eb78c32	0.35849148
22	0xbdea59ee	-0.11442934
23	0x3e573414	0.2101596
24	0x8050b956	-7.413326e-39
25	0x81639b4a	-4.180473e-38
26	0x3e56a616	0.20961794
27	0x816241f8	-4.1556975e-38
28	0x0188e46d	5.0286285e-38
29	0xbe79427f	-0.24341772
30	0x3caf6aae	0.021413174
31	0xbd8d870d	-0.069105245
32	0xbdb9cc1c	-0.09072134
33	0xbd9bdaf4	-0.07610121
34	0x018044ba	4.711839e-38
35	0x809e3aa8	-1.453105e-38
36	0xbdaeffd1	-0.08544887
37	0x80c27680	-1.7858596e-38
38	0x810869ba	-2.505511e-38
39	0xbdacf275	-0.084446825
40	0x3e2cbe09	0.16869368
41	0xbe377bb4	-0.17918283
42	0xbe547e1e	-0.20751235
43	0x3e641517	0.2227367
44	0x0049c8d8	6.77604e-39
45	0x00a8179a	1.543683e-38
46	0xbdbaa1a2	-0.0911286
47	0xbd016c5c	-0.03159748
48	0x01937746	5.417042e-38
49	0x3d8fea68	0.07027131
50	0xbd01efff	-0.03172302
51	0xbd01ed91	-0.0317207
52	0xbd3def05	-0.046370525
53	0xb743bb68	-1.166654e-05
54	0x00537075	7.662688e-39
55	0x01ae770b	6.4088324e-38
56	0xbe275716	-0.16341814
57	0x01b26462	6.5530916e-38
58	0x81214fb7	-2.9628222e-38
59	0xbb34fe9e	-0.0027617584
60	0x3ea431f4	0.3206936
61	0xbeb0e3d1	-0.3454881
62	0x3e08c05a	0.13354626
63	0xbe473c12	-0.19456509
64	0x80b3585d	-1.6470253e-38
65	0x00353140	4.884949e-39
66	0x3e3ec488	0.18629658
67	0x3cfe21d3	0.031021988
68	0x019aeaea	5.690775e-38
69	0x3e6d5380	0.23176384
70	0xbcfeae5d	-0.031089002
71	0xbcfbb968	-0.030728057
72	0x0082a24a	1.1996833e-38
73	0x9b228a4a	-1.344501e-22
74	0x8147e73e	-3.6716436e-38
75	0x01b3120b	6.5780106e-38
76	0xbd006811	-0.031349245
77	0x810169a2	-2.3769346e-38
78	0x019199cd	5.348528e-38
79	0xb4be3f70	-3.5436415e-07
80	0x3ebe9501	0.37223056
81	0xbd6b0703	-0.057379734
82	0x3c54dc98	0.012992047
83	0x3e98f775	0.29876295
84	0x019a4608	5.6671156e-38
85	0x0043a74f	6.212997e-39
86	0xbe2e3823	-0.17013602
87	0xbce440ef	-0.027862994
88	0x002ee98a	4.308211e-39
89	0xbe3f6a27	-0.18692838
90	0xbd819ee1	-0.06329132
91	0x3e239134	0.1597336
92	0xbe2cf944	-0.16891962
93	0x3e40b87b	0.18820374
94	0x0113a904	2.71209e-38
95	0x81049e61	-2.4358202e-38
96	0x3df972f5	0.121801294
97	0xbd2e0b10	-0.04249102
98	0x0042fdc2	6.152174e-39
99	0x3e1c0fc0	0.15240383
100	0xbeb6c505	-0.3569719
101	0xbea67c24	-0.32516587
102	0xbcf649bd	-0.030064458
103	0x3ec8fdf6	0.39256257
104	0x01bd6dff	6.958547e-38
105	0x010bfc53	2.5711302e-38
106	0xbddbe369	-0.107367344
107	0x018baa02	5.1304485e-38
108	0x815d89de	-4.0690204e-38
109	0x3e79e5b6	0.24404034
110	0x3d74de53	0.059782337
111	0x3d6de350	0.05807811
112	0xbebf6699	-0.37382963
113	0xbe1fa6d2	-0.1559098
114	0x01552218	3.9146382e-38
115	0x011a594c	2.83494e-38
116	0xbe2d63a9	-0.16932549
117	0x818820be	-5.000549e-38
118	0x00d51099	1.9566915e-38
119	0xbe2a21c2	-0.1661444
120	0x3ea6ae80	0.32555008
121	0x3e795b10	0.24351144
122	0x3e1d3691	0.15352847
123	0xbe9a95b9	-0.30192354
124	0x80c4337f	-1.801823e-38
125	0x805dc6e8	-8.612055e-39
126	0xbd7e4a88	-0.062082797
127	0x3cfde2de	0.030991968
128	0x80567b5a	-7.942103e-39
129	0xbed20cd5	-0.41025415
130	0x3df73f79	0.12072653
131	0xbdcd5997	-0.100268535
132	0x3d7896c7	0.060690667
133	0x3e77e70b	0.2420923
134	0x816c9585	-4.345363e-38
135	0x81bb95a9	-6.8907703e-38
136	0x3c83147a	0.016000975
137	0xbd008a7d	-0.031382073
138	0x014a4968	3.7154207e-38
139	0x3eb26e25	0.3484966
140	0xbc856374	-0.016282775
141	0xbb06ccc0	-0.0020568818
142	0xbc65de23	-0.014030012
143	0xbc5b3ad1	-0.013380722
144	0x80af300b	-1.6088446e-38
145	0x8149dc09	-3.7075737e-38
146	0xbc2e4d12	-0.010638492
147	0x802a8f9f	-3.908612e-39
148	0x8192740c	-5.379845e-38
149	0xbc7131c4	-0.014721338
150	0xbc9c4b7a	-0.019078959
151	0xbc04784d	-0.008085323
152	0xbc92142d	-0.017831886
153	0xbc91ceab	-0.017798742
154	0x818e7916	-5.233631e-38
155	0x802698a4	-3.544506e-39
156	0xbc7baaa3	-0.015360507
157	0x01b7f3b5	6.7573286e-38
158	0x010c0407	2.5716828e-38
159	0xbc950632	-0.01819143
160	0x3ecbdf96	0.3981902
161	0xbb906d3e	-0.004407554
162	0xbeeafcc2	-0.45895964
163	0x3e96a823	0.29425153
164	0x819c3b87	-5.7390767e-38
165	0x818b668d	-5.120769e-38
166	0xbe3fe6f1	-0.18740441
167	0x3cef713c	0.029228799
168	0x010d9cc8	2.6010095e-38
169	0x3ef3066d	0.4746584
170	0xbddbd39e	-0.10733722
171	0xbb45d2ff	-0.0030185578
172	0xbe813d45	-0.25242057
173	0xbd1ed271	-0.03877491
174	0x011deec6	2.9007657e-38
175	0x80e094d7	-2.0624545e-38
176	0xbe80a45b	-0.25125393
177	0x8154f7da	-3.9116075e-38
178	0x806b56b9	-9.857508e-39
179	0x3e737b63	0.23777537
180	0xbef820d5	-0.4846255
181	0x3e132d94	0.14372855
182	0x3d88123c	0.06644103
183	0x3bd3495d	0.0064479546
184	0x010152ea	2.3753046e-38
185	0x805f7d63	-8.769352e-39
186	0x3e3d348d	0.18477078
187	0x018f30bf	5.259985e-38
188	0x00693b93	9.664098e-39
189	0xbdf8b6d5	-0.121442474
190	0x3ddd2035	0.10797159
191	0x3efcc08b	0.4936565
192	0xbc5225f3	-0.012826431
193	0x3d3b2a2e	0.045694523
194	0x812c6950	-3.166697e-38
195	0x81102dec	-2.648157e-38
196	0xbe20a20e	-0.15686819
197	0x3cffc353	0.031221068
198	0x816f36de	-4.3936732e-38
199	0x3dd56722	0.10420062
200	0x3d378bc2	0.044811018
201	0x3d3ff03c	0.046859965
202	0x3d583b5d	0.05279099
203	0xbe1452ff	-0.14484785
204	0x810a370f	-2.53861e-38
205	0x008086a1	1.1803239e-38
206	0x3ed36a54	0.4129206
207	0x3d00bd4b	0.031430524
208	0x81bb7416	-6.8859526e-38
209	0x3e9c6c27	0.30551264
210	0xbe8fd9cf	-0.28095862
211	0x3e56697b	0.20938675
212	0x3e0de2b8	0.13856018
213	0xbe3615b2	-0.17781714
214	0x00d5f738	1.9649646e-38
215	0x80b748db	-1.6832031e-38
216	0x3ec73f07	0.38915274
217	0x3cfa76eb	0.030574283
218	0x807f9564	-1.1716699e-38
219	0x3da874fb	0.08225437
220	0x3e0e088e	0.13870451
221	0xbf12ed84	-0.5739367
222	0x3e25fc8d	0.16209622
223	0xbce4966c	-0.027903758
224	0x814ce490	-3.7632868e-38
225	0x000d66ec	1.230783e-39
226	0x3af52ab8	0.0018704748
227	0xbd00767f	-0.031363007
228	0x803d584c	-5.63364e-39
229	0x3e303f17	0.17211567
230	0xbda987fb	-0.08277889
231	0x3e85b2d1	0.2611299
232	0x3da1853a	0.07886739
233	0xbe8107b2	-0.25201184
234	0x815274d2	-3.8654723e-38
235	0x8072f505	-1.0557143e-38
236	0xbd8fe491	-0.070260175
237	0x3cfb2b27	0.030660225
238	0x81382e2c	-3.382859e-38
239	0x3e1d81ce	0.15381548
240	0xbc7a8092	-0.015289443
241	0xbc67129b	-0.014103557
242	0xbbda62e9	-0.006664623
243	0x3ab6af2a	0.0013937701
244	0x019bb2e0	5.719468e-38
245	0x80f179bc	-2.2176025e-38
246	0xa4b5fbd0	-7.8922824e-17
247	0x018d4fc0	5.1909655e-38
248	0x01630ab2	4.170099e-38
249	0xba4e8bc7	-0.0007879105
250	0xbc032f12	-0.008006828
251	0xbc817af0	-0.015805691
252	0xbd6d8fe4	-0.057998553
253	0xbc5e3ee5	-0.0135648
254	0x017b12f0	4.6115006e-38
255	0x8033ce98	-4.757722e-39

decoder.0.bias f4 [512]
0	0x3d4d9de1	0.050199393
1	0x3d8522f1	0.06500805
2	0x3e8091f0	0.2511134
3	0xbd2dd6ff	-0.042441364
4	0xbe07ec89	-0.13273825
5	0x3e2f8324	0.1713987
6	0x3f1d4d74	0.6144631
7	0x3d8fb897	0.070176296
8	0xbe0c53a8	-0.13703787
9	0xbe1afc41	-0.1513529
10	0xbec1a3bb	-0.3782023
11	0x3e9f120d	0.3106846
12	0xbd0aa41e	-0.03384792
13	0x3d8633c7	0.065528445
14	0xb31c6b5b	-3.641922e-08
15	0xb9b24b03	-0.00034006694
16	0x3e2c1e69	0.16808476
17	0x3d2cc182	0.04217673
18	0x3d41388e	0.047173075
19	0x3e227eaa	0.15868631
20	0xbe8b3927	-0.2719204
21	0xbcc578f7	-0.024105532
22	0x3ef224bb	0.47293648
23	0xbdd7594d	-0.1051508
24	0x3b1544e7	0.0022776665
25	0xba8158f4	-0.0009868429
26	0x3e6417f3	0.22274761
27	0xbe314828	-0.17312682
28	0x3ed0e98e	0.40803188
29	0xbe199e47	-0.15001784
30	0x3eb6636a	0.35622722
31	0x3ce8b6a3	0.0284074
32	0xbdf5ec74	-0.120079905
33	0x3b84a7b4	0.004048312
34	0xbe41fdaf	-0.18944429
35	0xbd2141e8	-0.039369494
36	0x3ea2a105	0.31763473
37	0xbe37d11b	-0.17950861
38	0x3d7948d2	0.060860462
39	0x3e22687c	0.1586017
40	0x3ea34ca8	0.31894422
41	0x3db8e92d	0.0902885
42	0xbdb3457a	-0.08753486
43	0x3de84f1d	0.11343215
44	0xbe7daaef	-0.24772237
45	0x3e1b53fe	0.15168759
46	0x3ceda7b3	0.02901063
47	0x3e319bdc	0.17344612
48	0xbc198811	-0.00937082
49	0x3c9841b8	0.018586025
50	0x3da75bea	0.08171828
51	0x80c7be76	-1.8343588e-38
52	0x3e903db7	0.28172085
53	0x3d1df69e	0.03856527
54	0xbe1f1c06	-0.15538034
55	0x3def03e0	0.11670661
56	0xbe03f969	-0.12888111
57	0x3d03cc20	0.03217709
58	0x3e045f21	0.12926914
59	0x3c7d40dd	0.015457359
60	0x3d69df84	0.057097927
61	0x3e1327be	0.14370629
62	0x3e08e564	0.13368756
63	0x3e92cd8b	0.28672442
64	0x3de8ccdd	0.113671996
65	0x3d2bb744	0.041922823
66	0x3defa162	0.11700703
67	0x3e26f195	0.16303094
68	0x3e122313	0.14271192
69	0xbe2bf5c8	-0.16792977
70	0x3dbcf72b	0.09226831
71	0x3e5f0390	0.21778703
72	0x3d9ac078	0.07556242
73	0x3d8d0458	0.06885594
74	0xba340a8b	-0.0006868026
75	0xbc5969b1	-0.013269828
76	0x3e66a066	0.22522125
77	0x3e1f2d28	0.1554457
78	0x3d170849	0.036873136
79	0xbe0a6ef1	-0.13518883
80	0x3e02e82b	0.12783878
81	0xbe3205e9	-0.17385067
82	0x3ca908fd	0.020634169
83	0x3e064b0e	0.13114569
84	0xbd91fe82	-0.07128622
85	0xbe80def2	-0.25170094
86	0xbb0596e9	-0.002038414
87	0x3dc75699	0.09733314
88	0x3b8de018	0.0043296926
89	0xbe9eebfa	-0.3103941
90	0x3d63edbd	0.055646647
91	0xbcc6ecc4	-0.02428282
92	0x3d8ab90c	0.06773576
93	0x88e46c46	-1.3747706e-33
94	0x3df33143	0.1187463
95	0xbe58110f	-0.21100257
96	0x3ea80acf	0.32820746
97	0xbd1486e8	-0.03626147
98	0xba675d47	-0.000882585
99	0xb4beab1e	-3.5514762e-07
100	0xb6de1b00	-6.619259e-06
101	0xbdb454e4	-0.08805254
102	0xbe260b3e	-0.16215226
103	0xbafc0ab5	-0.0019229265
104	0x3eaa26a3	0.33232602
105	0x3e7354f7	0.2376288
106	0x3e1d9b89	0.15391363
107	0x3e4d7547	0.20064269
108	0x3e884d20	0.26621342
109	0x3eb1311d	0.34607783
110	0x3e086d57	0.1332296
111	0x3e3e7440	0.18599033
112	0x3e432520	0.19057131
113	0xbe03183a	-0.1280221
114	0x3d8e0776	0.06935017
115	0xbe4f63b7	-0.20252882
116	0x3e597a64	0.21238095
117	0xbd500aa3	-0.050791394
118	0xbe2fe568	-0.17177355
119	0xbdf3fdcb	-0.119136415
120	0x3e00481c	0.12527508
121	0xbea9b092	-0.33142525
122	0x3d251ed0	0.04031259
123	0x3eb33ef6	0.35008973
124	0x3b5cef67	0.003371203
125	0x3dcec8ee	0.10096918
126	0xbcfe6938	-0.031056032
127	0x3ea26dd6	0.31724423
128	0x3e65c4ca	0.2243835
129	0xa03feac2	-1.6256004e-19
130	0x3e451db3	0.1924961
131	0x3b9c2748	0.004765425
132	0x3e304d67	0.17217027
133	0xbe2cc8c0	-0.16873455
134	0xbc66a0df	-0.014076441
135	0xbe3f8cdb	-0.18706076
136	0x3e62860a	0.22121444
137	0xb656d40b	-3.201191e-06
138	0xbe000e44	-0.12505442
139	0x3e122344	0.14271265
140	0x80385404	-5.172927e-39
141	0xbc16dd85	-0.009208088
142	0xb891972e	-6.942298e-05
143	0x3e11e7cc	0.1424858
144	0x3e66bef1	0.22533776
145	0x3e8b05ee	0.27152961
146	0xaa481438	-1.7770583e-13
147	0x3e7848c4	0.24246508
148	0x3d97a8ac	0.074052185
149	0xbe85bc94	-0.26120436
150	0xbc9ffd4a	-0.019529957
151	0x3d9a94e9	0.075479336
152	0x3e9fa2ae	0.31178802
153	0x3dea0155	0.11426035
154	0x3e77c709	0.2419702
155	0xb8bd9820	-9.040558e-05
156	0x3dce4d1a	0.100733
157	0x3e892bfa	0.26791364
158	0xbdbbc773	-0.09168901
159	0xbdac124f	-0.084019296
160	0xbddfb6d1	-0.10923541
161	0x3e6356c4	0.22201067
162	0xb9413760	-0.00018426543
163	0x3bd1328e	0.0063842004
164	0xbe2e31d0	-0.1701119
165	0x3e028e25	0.12749536
166	0x3d6cdc08	0.057827026
167	0x3b8082b6	0.003921832
168	0x3eb1637d	0.34646216
169	0x3d0fb266	0.035082243
170	0x3cd757f9	0.026287066
171	0x3e94b7f1	0.29046586
172	0x3e9d8ffd	0.30773917
173	0xbdfb2cbe	-0.12264393
174	0x3ea15815	0.31512514
175	0x3e3f5db9	0.18688096
176	0x3e2daacf	0.1695969
177	0x3e383253	0.17987947
178	0xbdecd5d1	-0.1156422
179	0xbdc64bc2	-0.096824184
180	0x3dd87f9d	0.10571215
181	0x3cdbe94f	0.026844649
182	0x3df2a309	0.11847503
183	0xbe84814a	-0.2587989
184	0x3ee20b8d	0.44149438
185	0xbdb320ac	-0.08746466
186	0x3e1c41ff	0.1525955
187	0xbae7e81a	-0.0017693073
188	0xb58b1f0f	-1.0365346e-06
189	0x3ea03672	0.31291538
190	0xbe80ae31	-0.25132897
191	0x3e6f487d	0.23367496
192	0x3e615fa9	0.22009148
193	0xbd7d0d76	-0.061780415
194	0x3e5fed76	0.21867928
195	0xbcbb548b	-0.022867462
196	0x3d03a4f2	0.032139726
197	0xb21cf9e0	-9.13721e-09
198	0xbc16cd33	-0.009204197
199	0xbb9b4fd9	-0.004739743
200	0x3dcd1003	0.100128196
201	0x3e9b6e12	0.30357414
202	0xbb928c6e	-0.004472307
203	0x983d96f5	-2.4503891e-24
204	0x3ebaa8d4	0.3645693
205	0xbdbff6c2	-0.09373237
206	0xbb5b2d47	-0.0033443735
207	0xbe0cce0e	-0.13750479
208	0xbda7aff3	-0.081878565
209	0x3dbe493e	0.092913136
210	0x3c9e207b	0.019302597
211	0xbb024e0e	-0.001988295
212	0x3e8b4a86	0.27205294
213	0x3e19e397	0.15028225
214	0xba28c95b	-0.0006438696
215	0x3ce0c2c3	0.02743662
216	0xbd399daa	-0.045316376
217	0x3ccb4c11	0.024816545
218	0xad917d14	-1.6540137e-11
219	0x3e258ada	0.16166249
220	0xbe34e1d8	-0.17664278
221	0x3b6eb635	0.0036424522
222	0xb229be56	-9.880372e-09
223	0xbd76888d	-0.06018882
224	0x3bf60c1c	0.007508768
225	0xbe66dfd6	-0.22546324
226	0x3d416d72	0.047223516
227	0xbe783c23	-0.2424169
228	0xb629eb11	-2.531979e-06
229	0x3e938b13	0.28817043
230	0x3de0ca40	0.10976076
231	0xbdd51bd7	-0.10405701
232	0x376e45bb	1.4202141e-05
233	0x3efd57cb	0.49481043
234	0x3dd01ffe	0.10162352
235	0xb0a0bd5c	-1.1695351e-09
236	0x3e4e5540	0.20149708
237	0x3e2ea6e5	0.17055853
238	0x3d9a23c2	0.075263515
239	0xbe22ba54	-0.15891391
240	0x3d219112	0.03944499
241	0xbd48c319	-0.049014185
242	0x3bfbeb88	0.0076879896
243	0x3c91fdca	0.017821211
244	0xa9bc76fa	-8.369516e-14
245	0x3e67d0a2	0.22638181
246	0xbd5004f9	-0.050785992
247	0xbb519378	-0.0031978767
248	0xbe1ec1d8	-0.15503633
249	0x3e117577	0.14204966
250	0x3e42adde	0.19011638
251	0x3eb4cc47	0.353121
252	0x3dffa8e7	0.124833874
253	0x3d81e525	0.06342534
254	0x3e926d0e	0.28598827
255	0xbe2e1a3a	-0.17002192

decoder.3.weight f4 [32, 16, 3, 3]
0	0xbdd8719b	-0.105685435
1	0xbd5d4d9f	-0.054029103
2	0xbe1c25c8	-0.15248787
3	0xbd73274b	-0.059363645
4	0xbd65f4d0	-0.056141675
5	0xbe19b723	-0.15011267
6	0x3e42641d	0.18983503
7	0x3e3d58a8	0.18490851
8	0xb9dd941a	-0.0004226275
9	0x3d24c83c	0.04023002
10	0xbb601863	-0.0034194223
11	0xbc28156f	-0.010259016
12	0xbeace393	-0.33767375
13	0xbe3662cc	-0.17811126
14	0xbec42b52	-0.383143
15	0x3b934e25	0.0044953995
16	0xbb9066af	-0.004406772
17	0xbdbe06d6	-0.092786476
18	0xbe7302f7	-0.237316
19	0xbdb982a6	-0.09058122
20	0xbe1eda46	-0.15512952
21	0xbb906165	-0.0044061416
22	0xbd278624	-0.04089941
23	0xbdc4f396	-0.09616773
24	0x3e854771	0.26031068
25	0x3e33d228	0.17560637
26	0xbd07419c	-0.033021554
27	0x3cf9f9f2	0.030514691
28	0xbe1af664	-0.15133053
29	0xbd450130	-0.048096836
30	0x3e39a507	0.18129359
31	0xbc788c4e	-0.01517017
32	0xbe9fb1dc	-0.31190383
33	0xbd3f341d	-0.04668056
34	0x3e426e3d	0.18987365
35	0xbdd170f4	-0.10226622
36	0x3c45a850	0.012064055
37	0xbdd31da9	-0.103083916
38	0x3d29eebf	0.04148745
39	0x3c11648b	0.008874069
40	0xbdb5b86b	-0.088730656
41	0xbcd9c1fe	-0.02658176
42	0xbdb3c8d6	-0.08778541
43	0xbcfa7e3b	-0.03057777
44	0xbd74ff87	-0.059814002
45	0xbdea2a6e	-0.11433874
46	0xbd245208	-0.040117294
47	0xbdc8807b	-0.09790131
48	0xbc65f8b3	-0.014036345
49	0x3e5071e5	0.20355947
50	0x3be66775	0.007031376
51	0x3cff1825	0.031139443
52	0xbd1c5bcf	-0.038173493
53	0x3ce81aea	0.028333146
54	0xbe2e217e	-0.17004964
55	0xbe53ceb7	-0.20684324
56	0xbe1e7dcd	-0.15477677
57	0xbaf7b798	-0.001889932
58	0xbdc3706b	-0.095429264
59	0x3d849ac9	0.064748354
60	0x3e46afe1	0.1940303
61	0x3e09602e	0.13415596
62	0xbbd5569d	-0.0065105692
63	0xbe28258b	-0.16420572
64	0xbde4eb2a	-0.111776665
65	0xbe5b15db	-0.21395056
66	0x3d5b6bd4	0.05356963
67	0xbb8ba91a	-0.004262102
68	0xbe2f660c	-0.17128772
69	0xbdb5b0b8	-0.08871597
70	0x3dfd6cdf	0.12374281
71	0xbe8ad6a2	-0.27116877
72	0xbda4c2ac	-0.08044943
73	0xbd748fbd	-0.059707392
74	0xbd38e314	-0.045138434
75	0x3de540b3	0.11193981
76	0x3cd4f3c0	0.025995135
77	0xbd1b6583	-0.037938606
78	0x3a824cd5	0.0009941111
79	0x3e9170ab	0.2840627
80	0xbcdd9b8d	-0.027051711
81	0x3d5dc447	0.054142263
82	0x3ca9cf82	0.02072883
83	0xbe5ce3e3	-0.21571307
84	0xbdab7694	-0.08372226
85	0x3d1e6468	0.038669974
86	0xbd40bec4	-0.04705693
87	0x3e044302	0.12916186
88	0xbe82423e	-0.25441164
89	0xbd62e6c5	-0.05539586
90	0xbe323bb9	-0.17405595
91	0xbe3cfaec	-0.18455094
92	0xbe0470bc	-0.1293363
93	0xbe9fa3b9	-0.31179598
94	0xbe536221	-0.20642902
95	0xbe1dfd75	-0.15428717
96	0x3eab9e93	0.3351942
97	0x3dcae3a2	0.09906699
98	0x3bb8fedb	0.0056456155
99	0xbec9c65b	-0.39409146
100	0xbd8a511b	-0.06753751
101	0x3c9208ed	0.017826522
102	0x3e47e010	0.19519067
103	0xbeb0cee9	-0.3453286
104	0xbdbcaddb	-0.09212848
105	0x3c57aaa9	0.013163247
106	0x3dcd8a6b	0.10036167
107	0x3d17efd3	0.03709395
108	0x3db018fa	0.08598514
109	0x3c2930e8	0.010326602
110	0x3cb69f89	0.02229287
111	0x3dc02231	0.093815215
112	0xbdae9cae	-0.08525978
113	0xbe7a53af	-0.24445985
114	0x3e5365b9	0.20644273
115	0x3e6614de	0.22468898
116	0x3db737a2	0.08946158
117	0xbd6470f6	-0.05577179
118	0xbdae49f4	-0.08510199
119	0xbe4307a5	-0.19045885
120	0xbdd8bd22	-0.10582949
121	0xbd28bfe1	-0.041198615
122	0xbea0f7c1	-0.3143902
123	0x3db5e8bc	0.08882281
124	0x3d550eba	0.052015997
125	0xbd90b7f6	-0.07066338
126	0xbdbb9726	-0.09159689
127	0xbe2e56b6	-0.17025265
128	0xbe8dce34	-0.27696383
129	0xbd12fede	-0.03588759
130	0x3d8cfa41	0.0688367
131	0xbd075654	-0.033041313
132	0x3d5b648c	0.053562686
133	0x3eb9e146	0.36304682
134	0x3ccd1709	0.025035398
135	0x3cf0fe62	0.029418174
136	0xbe34c002	-0.1765137
137	0xbe020346	-0.12696561
138	0xbd35c35f	-0.044375774
139	0x3dba54e7	0.09098225
140	0xb7c58a3a	-2.3548597e-05
141	0x3c9eccd4	0.019384779
142	0xbde59c8d	-0.112115
143	0x3c802df7	0.015646918
144	0xbc438556	-0.011933645
145	0xbda1b2fa	-0.07895465
146	0x3da65bae	0.08122955
147	0x3e295c40	0.16539097
148	0x3e740a11	0.23831965
149	0xbdc004d7	-0.09375923
150	0x3e097bbe	0.1342611
151	0x3d8c8e90	0.06863129
152	0xbe0c843d	-0.1372232
153	0xbcf24895	-0.029575625
154	0xbd2fd171	-0.04292435
155	0xbd5daa29	-0.054117355
156	0xbe53135a	-0.20612851
157	0x3de9901c	0.1140444
158	0xbd375e97	-0.044767942
159	0x3e8be5ca	0.27323753
160	0xbcbd470f	-0.023105172
161	0x3e72dd47	0.23717223
162	0xbd80eeeb	-0.0629557
163	0xbdda3985	-0.10655502
164	0xbe2dc68a	-0.16970268
165	0x3ea47afd	0.32125083
166	0x3e305431	0.17219616
167	0x3d8ed306	0.06973843
168	0x3df1a372	0.11798753
169	0xbc834882	-0.016025785
170	0x3d2f293e	0.04276394
171	0xbdf5347f	-0.119729035
172	0xbe4532c8	-0.19257653
173	0x3c8f2867	0.01747532
174	0x3d44c152	0.048035927
175	0x3e2a4fc8	0.16631997
176	0xbeb5fd9c	-0.3554505
177	0xbdc871aa	-0.09787305
178	0x3e9742d8	0.29543185
179	0xbd133982	-0.035943516
180	0x3bda9577	0.0066706496
181	0x3cf33498	0.029688165
182	0xbe191868	-0.14950716
183	0x3de5d879	0.112229295
184	0x3e22b2c2	0.15888503
185	0xbd816ae1	-0.06319214
186	0x3dcdb642	0.100445285
187	0x3eb526e6	0.3538124
188	0x3e0880a0	0.13330317
189	0xbe2f07bd	-0.17092796
190	0xbd1aedce	-0.037824444
191	0x3d7d064e	0.06177359
192	0x3be54b5c	0.006997509
193	0xbdbee780	-0.09321499
194	0xbccf206c	-0.025284015
195	0xbeefcf5a	-0.46837884
196	0xbd088fae	-0.03334015
197	0xbe83f341	-0.25771526
198	0xbe25d57f	-0.16194724
199	0x3d82a9a4	0.06380013
200	0xbdc79661	-0.097454794
201	0x3e95ba49	0.29243687
202	0xbc5090d8	-0.012729846
203	0x3b8139c5	0.0039436542
204	0x3cd2d008	0.025733963
205	0xbe06196b	-0.13095634
206	0x3cb37f75	0.021911362
207	0xbe5b7056	-0.21429572
208	0x3e3e7443	0.18599038
209	0xbe6636c5	-0.2248183
210	0x3e8436db	0.258231
211	0x3e2cb304	0.16865164
212	0x3dbf3986	0.093371436
213	0x3e59c32b	0.21265857
214	0xbd72d453	-0.05928452
215	0x3e93688e	0.28790706
216	0xbc00a327	-0.007851399
217	0xbd82bc73	-0.063836
218	0xbd69ad70	-0.05705017
219	0x3d9dab70	0.07698715
220	0x3e45f12d	0.19330283
221	0xbdc4efeb	-0.09616073
222	0x3d9bb9c3	0.076037906
223	0x3e70ac15	0.23503144
224	0x3d196917	0.037453737
225	0x3d537a5f	0.051630374
226	0xbeb3954f	-0.3507485
227	0xbe94bced	-0.2905039
228	0x3d36dcd0	0.044644177
229	0x3e61ab2f	0.22037958
230	0x3e41c209	0.18921675
231	0x3dfbf17e	0.1230192
232	0x3e92e4f6	0.28690308
233	0xbcbf5e3e	-0.023360368
234	0x3e0eccff	0.13945387
235	0xbdfb13d3	-0.122596405
236	0x3e25d0fe	0.16193005
237	0x3d83dd62	0.0643871
238	0x3ddb5222	0.10709025
239	0x3e02ca86	0.12772569
240	0xbd2c0374	-0.04199548
241	0x3db1857a	0.08668037
242	0xbda5fd37	-0.081049375
243	0x3c30b326	0.0107849
244	0xbddb98bc	-0.10722491
245	0x3e0deae4	0.13859135
246	0x3dd750d9	0.10513467
247	0x3ecffbac	0.40621698
248	0xbdb64d89	-0.089015074
249	0x3c80203b	0.015640369
250	0xbe2ef7cc	-0.17086715
251	0xbe202842	-0.15640357
252	0xbe68554a	-0.22688785
253	0xbe860151	-0.2617288
254	0x3cc34b9f	0.02383977
255	0x3e6bb318	0.23017538

decoder.3.bias f4 [16]
0	0xbe0fdf01	-0.14049913
1	0x3e0c1377	0.136793
2	0xbdfa4837	-0.12220805
3	0xbe289ffe	-0.16467282
4	0x3d2ac345	0.04169013
5	0xbb3266a0	-0.0027221814
6	0xbac93eeb	-0.0015353834
7	0xbe733abe	-0.23752877
8	0xbbb2a292	-0.005451509
9	0xbe9cb40c	-0.30606115
10	0xbd03daa9	-0.032190952
11	0xbda896b3	-0.082318686
12	0xbdc0598c	-0.0939208
13	0x3d7dea54	0.06199105
14	0xbe40ba6d	-0.18821116
15	0xbdcfd2a4	-0.101475984
